examples/tmp/test_ropetransformer.model (torch, 53775 bytes, 39 tensors)

input_proj.weight f4 [16, 1]
0.052280348 -1.0257014 -0.3614171 -0.5884165 -0.8105079 -0.25086018 0.79754925 -0.607386
-0.45057893 -0.76942825 -0.1627038 -0.24026828 -0.6657706 -0.41279447 0.58339167 0.3972207
00000000: eb23 563d 2f4a 83bf aa0b b9be 77a2 16bf
00000010: 727d 4fbf bf70 80be 302c 4c3f a67d 1bbf
00000020: 48b2 e6be 40f9 44bf d39b 26be e308 76be
00000030: f16f 2abf cc59 d3be 2859 153f 8360 cb3e

input_proj.bias f4 [16]
0.088171594 -0.77798545 -0.1637063 -0.16688998 0.77205414 1.1362175 0.70905167 -0.3734086
0.2859697 0.6456384 1.094468 0.6855245 0.42877027 0.2459814 -0.05965391 -0.81201655
00000000: 4f93 b43d 0e2a 47bf a0a2 27be 35e5 2abe
00000010: 57a5 453f 936f 913f 6984 353f 692f bfbe
00000020: 9f6a 923e 8f48 253f 8717 8c3f 897e 2f3f
00000030: c787 db3e 8ce2 7b3e a957 74bd 51e0 4fbf

transformer_blocks.0.attn.qkv.weight f4 [48, 16]
-0.1675176 -0.21595675 0.04910013 -0.010382503 0.08909142 -0.16523135 0.15454358 -0.12888789
-0.19995254 0.16971537 0.2064355 0.1943242 -0.02679345 0.112977475 -0.1984064 -0.015772969
-0.022340655 -0.010004431 -0.07191229 0.00093361735 0.24214402 0.07810426 0.10908121 -0.099850744
0.21450308 0.09585127 -0.10897341 0.15483144 -0.12561515 -0.21138853 0.24488616 0.04729551
-0.09658775 -0.13500178 0.20803103 -0.21784264 -0.146958 -0.16542771 0.16031837 0.12798664
-0.008521557 -0.17995304 0.13644725 0.1610407 -0.19082886 0.050270796 0.18254456 0.15248346
-0.19588202 -0.22653714 0.19028538 0.120847374 0.2085838 -0.20241559 -0.00925535 -0.19863245
-0.17416602 0.17433676 -0.08000454 -0.23899645 -0.20872858 0.15938064 0.18657714 0.011938095
0.21459484 0.18616873 0.060477287 -0.2309083 0.16822267 -0.19621912 -0.1744563 -0.10089755
-0.22344899 0.0764097 0.22739366 0.15237561 0.082916796 0.10038799 -0.15145478 -0.2091712
-0.14277604 -0.2309894 -0.087893695 0.031025738 0.16150019 0.08185896 -0.12566265 0.20450985
-0.19237909 -0.14021087 -0.21617863 0.13868755 -0.08651453 0.22571945 0.0047850907 -0.092648685
0.0070468485 0.21472415 -0.092164904 0.17639872 -0.15252545 0.010857791 -0.23035699 -0.007914871
-0.13059595 -0.21740201 0.017389804 -0.11930439 -0.08734903 -0.13867164 -0.030710936 0.09061563
-0.23110777 0.08688718 -0.046997607 0.0972254 0.048044473 0.07822707 -0.069374084 0.0913758
0.12240839 -0.042354435 -0.09527147 -0.06613448 -0.09697658 -0.19770277 0.17669177 -0.16274077
-0.22398852 -0.004863335 -0.1171701 -0.019293515 -0.04618054 -0.16846927 0.06479067 0.12689339
0.02600369 0.070974715 0.1857085 -0.23475221 0.19917083 -0.10303379 -0.00902609 0.1512511
-0.018951928 0.2985855 0.27812892 0.115122266 -0.2791014 -0.23515655 -0.15755014 -0.14187485
-0.06370867 -0.103523456 0.020050863 -0.14945428 0.0017773975 0.15003142 0.25216824 0.15847181
0.21481135 0.06979707 -0.07248285 0.03152508 0.058129307 -0.096670635 -0.0072284485 -0.20371261
-0.14529262 -0.25099584 0.1968902 0.025987117 0.20531602 -0.03328336 -0.10113073 -0.051534303
-0.29500204 0.122112416 -0.02478595 -0.042544004 -0.13088098 0.13272989 0.0071048513 0.085680045
0.0846846 0.23485874 -0.25205475 -0.15532795 -0.19564989 0.05513519 0.17047922 0.209674
0.147169 -0.010867057 0.2178156 0.027833376 0.050620355 -0.30186367 -0.0041555646 0.16062221
-0.16535829 -0.0331807 -0.2582036 0.12297506 -0.038688812 0.19569199 0.10436493 0.3334158
0.05408124 0.1161586 -0.13911174 0.25058472 0.118359186 -0.27909446 -0.21883859 -0.124720454
0.037357915 0.044059735 -0.11983592 -0.29627267 -0.20960738 0.11856297 -0.02472486 0.27380663
0.095230766 0.0077187344 -0.24576595 -0.16401745 -0.053644527 -0.03928489 0.068158515 0.07359421
-0.13165542 -0.012827375 -0.10817017 0.13587385 -0.19035055 -0.12892841 -0.081567384 -0.2673098
-0.120782055 -0.10375524 0.09505502 -0.21064909 0.19996978 -0.2126942 -0.0989525 -0.25452906
0.06201242 0.18110494 0.2658474 -0.16936824 0.0958723 0.23131241 0.19658099 -0.035532564
00000000: bc89 2bbe c423 5dbe 381d 493d 601b 2abc
00000010: 9075 b63d 6832 29be ac40 1e3e 30fb 03be
00000020: 5cc0 4cbe dec9 2d3e d463 533e ecfc 463e
00000030: f07d dbbc bc60 e73d 0c2b 4bbe 5036 81bc
00000040: c003 b7bc a0e9 23bc c046 93bd 00be 743a
00000050: 9af4 773e 20f5 9f3d f865 df3d 8c7e ccbd
00000060: b2a6 5b3e ac4d c43d 742d dfbd 228c 1e3e
00000070: 42a1 00be 3c76 58be 70c3 7a3e f0b8 413d
00000080: cccf c5bd e83d 0abe 1606 553e 2412 5fbe
00000090: 287c 16be e265 29be 802a 243e ee0e 033e
000000a0: 009e 0bbc 9c45 38be d4b8 0b3e dae7 243e
000000b0: a468 43be c0e8 4d3d f6ec 3a3e a024 1c3e
000000c0: 4c95 48be 5af9 67be 2cda 423e d47e f73d
000000d0: fe96 553e 0846 4fbe c0a3 17bc 4e66 4bbe
000000e0: 9458 32be 5685 323e 6cd9 a3bd 7cbb 74be
000000f0: f2bc 55be ae34 233e 140e 3f3e 0098 433c
00000100: c0be 5b3e 04a3 3e3e 08b7 773d 3a73 6cbe
00000110: 9042 2c3e aaed 48be aca4 32be 60a3 cebd
00000120: d0cf 64be b07c 9c3d e2d9 683e 5a08 1c3e
00000130: 48d0 a93d 3898 cd3d f616 1bbe fa30 56be
00000140: e233 12be 7c88 6cbe 9c01 b4bd b029 fe3c
00000150: 4e60 253e aca5 a73d b6ad 00be 086b 513e
00000160: 06ff 44be 7093 0fbe ee5d 5dbe 1c04 0e3e
00000170: 882e b1bd 0023 673e 40cc 9c3b 98be bdbd
00000180: 40e9 e63b a6e0 5b3e f4c0 bcbd dea1 343e
00000190: a22f 1cbe e0e4 313c b4e2 6bbe 60ad 01bc
000001a0: f2ba 05be a29e 5ebe 1075 8e3c dc55 f4bd
000001b0: 0ce4 b2bd f0ff 0dbe 8095 fbbc b094 b93d
000001c0: 84a7 6cbe e8f1 b13d 9080 40bd 1c1e c73d
000001d0: 48ca 443d 8435 a03d 0014 8ebd 3c23 bb3d
000001e0: 40b1 fa3d d87b 2dbd b01d c3bd 8471 87bd
000001f0: a89b c6bd 9872 4abe b0ee 343e 84a5 26be
00000200: 3f5d 65be 9c5c 9fbb e1f6 efbd 6f0d 9ebc
00000210: ce27 3dbd 3583 2cbe f9b0 843d 57f0 013e
00000220: b105 d53c 315b 913d 5e2a 3e3e e262 70be
00000230: 70f3 4b3e 6103 d3bd 2ae2 13bc 91e1 1a3e
00000240: 1341 9bbc 33e0 983e ea66 8e3e 39c5 eb3d
00000250: 61e6 8ebe e1cc 70be d354 21be a447 11be
00000260: b179 82bd 1b04 d4bd b541 a43c 8b0a 19be
00000270: 90f7 e83a d6a1 193e 321c 813e 6f46 223e
00000280: 82f7 5b3e c4f1 8e3d e371 94bd 7120 013d
00000290: ff18 6e3d 41fb c5bd 9fdc ecbb 0a9a 50be
000002a0: 97c7 14be 8782 80be 969d 493e efe2 d43c
000002b0: 5d3e 523e 2254 08bd a11d cfbd a215 53bd
000002c0: 820a 97be 1316 fa3d e80b cbbc 9f42 2ebd
000002d0: aa05 06be 58ea 073e d0cf e83b 0579 af3d
000002e0: 1f6f ad3d cf7e 703e 520d 81be 4a0e 1fbe
000002f0: 7258 48be 70d5 613d 1b92 2e3e c8b4 563e
00000300: 78b3 163e be0b 32bc 0d0b 5f3e d202 e43c
00000310: 4a57 4f3d e08d 9abe 672b 88bb 267a 243e
00000320: af53 29be 7ce8 07bd 4333 84be 59da fb3d
00000330: 2978 1ebd 7b63 483e 48bd d53d 7ab5 aa3e
00000340: 4a84 5d3d 8fe4 ed3d 4f73 0ebe a44c 803e
00000350: 4d66 f23d 78e5 8ebe 3917 60be 706d ffbd
00000360: 9d04 193d fb77 343d 896c f5bd 0db1 97be
00000370: 51a3 56be 24d1 f23d ca8b cabc 6230 8c3e
00000380: 5908 c33d 70ed fc3b 12aa 7bbe 31f4 27be
00000390: 5dba 5bbd 31e9 20bd b196 8b3d 90b8 963d
000003a0: aed0 06be e929 52bc 5288 ddbd 8422 0b3e
000003b0: 41eb 42be cf05 04be cd0c a7bd d5dc 88be
000003c0: 955c f7bd a17d d4bd 35ac c23d 65b4 57be
000003d0: e1c4 4c3e 82cc 59be 9ca7 cabd a251 82be
000003e0: bc00 7e3d 9373 393e 271d 883e de6e 2dbe
000003f0: b258 c43d 29dd 6c3e 874c 493e 988a 11bd

transformer_blocks.0.attn.qkv.bias f4 [48]
0.026037157 0.059370965 -0.21327445 -0.08530545 -0.10614911 0.09483743 0.12960249 -0.057878762
0.16079646 0.22004145 -0.17268138 0.26093313 0.026599424 -0.26590252 -0.32781583 -0.26909044
0.14198945 0.4047617 -0.14056857 0.07600276 0.32076976 0.23241928 -0.32636765 -0.35898995
-0.05912953 -0.34616074 0.16505808 -0.28997967 -0.15351592 -0.241729 0.24303181 0.36412552
-0.081709966 -0.026389558 0.16478612 0.20887983 -0.29283938 0.30869788 -0.11585108 0.19580822
0.1964077 0.10129693 0.008156044 -0.012245853 0.08979939 0.26578572 0.20770599 -0.20400855
00000000: e04b d53c f82e 733d 9e64 5abe a0b4 aebd
00000010: b464 d9bd 203a c23d 84b6 043e 4812 6dbd
00000020: d4a7 243e 8c52 613e 63d3 30be 0799 853e
00000030: 09e7 d93c 6024 88be 7ad7 a7be 39c6 89be
00000040: af65 113e ed3c cf3e 35f1 0fbe 56a7 9b3d
00000050: ef3b a43e 52ff 6d3e a919 a7be 88cd b7be
00000060: ce31 72bd fb3b b1be fc04 293e 3778 94be
00000070: 4733 1dbe cf87 77be 55dd 783e a96e ba3e
00000080: 8e57 a7bd ea2e d8bc b1bd 283e 98e4 553e
00000090: 0bef 95be a60d 9e3e 5543 edbd f381 483e
000000a0: 1a1f 493e c474 cf3d eea0 053c d5a2 48bc
000000b0: bee8 b73d 1115 883e e1b0 543e 9ee7 50be

transformer_blocks.0.attn.out.weight f4 [16, 16]
0.054173425 0.35137004 0.123050444 0.05755139 0.00030591188 0.1280201 -0.20143694 0.024189906
0.07726536 0.019951807 0.08912883 0.14785096 -0.0023878908 0.25832263 -0.077835254 -0.18063542
-0.12517118 0.079257876 -0.03434695 0.15403135 -0.05292828 -0.060956065 -0.14832576 -0.120390266
-0.09851082 0.061322376 0.08815267 -0.15617374 0.149603 -0.040631745 0.096120805 0.06426983
0.098523654 0.021539593 -0.016941546 -0.19602604 0.21731012 0.17466983 -0.102058485 -0.16325596
-0.0006353182 0.28525743 -0.15182899 0.20465936 -0.10640383 0.1476844 -0.1387468 -0.14109269
0.40139225 0.0845851 0.13071702 -0.28046942 0.033447973 0.46112457 0.34266818 0.15951179
-0.023192089 -0.10560029 0.24127707 0.08627017 0.107677706 0.16085711 0.06123589 0.22522832
0.021929454 0.1256532 0.103201024 -0.091990754 -0.16692066 0.033651482 0.17539379 -0.20725824
0.20647405 0.21689045 -0.0010355628 0.20071517 -0.18613839 -0.064208515 0.2541209 0.18894608
0.27262142 0.0028522804 -0.31602037 0.20554861 0.14751932 0.031331256 0.020512022 -0.10233147
-0.24906716 -0.09720519 -0.25383645 -0.17559612 -0.00046028921 -0.15933874 0.17974861 -0.29923537
-0.19887275 0.02456177 -0.05655744 -0.13216417 0.07188712 -0.23363233 0.13038874 -0.16132714
-0.1412722 0.11492571 -0.024913175 0.23381042 0.07399572 -0.016567208 -0.19434518 -0.14903158
-0.2748205 -0.16732243 -0.31028298 -0.20725578 0.21043536 -0.089274585 -0.06843405 -0.06288668
0.09690097 -0.3379674 0.08857149 0.019099545 0.049775723 -0.000673966 -0.086508155 0.07696442
0.083514936 -0.16571848 -0.07472891 -0.22205693 -0.00054821966 0.08118951 0.0039757374 0.22092795
-0.0012401219 0.21191977 -0.11604458 0.019854687 0.16696602 0.13200359 -0.05228355 0.07360316
0.057019956 -0.2891693 0.22991836 -0.11560742 0.16028883 -0.15663598 -0.100149035 0.31079984
0.16986768 -0.109330654 0.05150037 -0.16043898 0.015853882 0.2108789 0.24292587 -0.07720178
-0.19761012 -0.024099633 0.14078802 -0.14756185 0.11812755 -0.16281627 -0.13018821 0.091503285
0.0883329 -0.22027351 -0.103819035 -0.20633711 -0.11650821 -0.042849176 -0.06546425 0.14409937
-0.16075881 -0.42307836 0.06658003 0.087745145 -0.057843 -0.4672621 0.09158341 -0.32028607
-0.2736848 0.00880369 0.029051498 0.19169277 0.16540569 -0.2688705 -0.32648006 -0.3949726
-0.07978521 0.25225294 -0.26040852 0.07179814 0.11005543 -0.050896812 -0.23170541 0.002976973
0.10151066 0.1745385 0.20647202 -0.20983747 0.07854579 0.123786375 -0.04960833 0.17892627
-0.34514105 -0.24791282 -0.1036436 -0.21161135 0.18289927 0.06511525 -0.118034594 0.22983573
-0.048233844 -0.102531545 -0.21710289 -0.2676514 -0.12804918 -0.12571801 0.07357435 0.29820862
0.24612 0.19726908 0.012773953 -0.16702557 -0.06816547 -0.116124295 -0.16000085 -0.2308888
0.009225079 0.18869968 -0.013081186 -0.2298255 0.006158001 -0.0941574 0.26133987 0.14929824
0.08507985 -0.043864522 -0.07715747 -0.066107474 -0.18908392 0.18114945 0.29322314 0.25349072
0.035224903 0.2575338 0.07834941 0.22770116 0.19654253 0.28591424 -0.07191101 0.21168417
00000000: f4e4 5d3d c6e6 b33e df01 fc3d 02bb 6b3d
00000010: cc62 a039 b317 033e 7c45 4ebe e929 c63c
00000020: 4d3d 9e3d f971 a33c 2d89 b63d 3e66 173e
00000030: 297e 1cbb dd42 843e 1768 9fbd 7ef8 38be
00000040: e02c 00be f451 a23d 63af 0cbd 65ba 1d3e
00000050: 53cb 58bd 11ad 79bd b5e2 17be 2c8f f6bd
00000060: 0ac0 c9bd 2c2d 7b3d 6389 b43d 02ec 1fbe
00000070: 8731 193e 796d 26bd fcda c43d e79f 833d
00000080: c5c6 c93d cd73 b03c ffc8 8abc 0dbb 48be
00000090: 8b86 5e3e a6dc 323e 0a04 d1bd 922c 27be
000000a0: 7c8b 26ba 430d 923e 0f79 1bbe 3992 513e
000000b0: 40ea d9bd 943a 173e a413 0ebe 9a7a 10be
000000c0: 4983 cd3e f43a ad3d afda 053e b099 8fbe
000000d0: be00 093d 8518 ec3e 3472 af3e 0f57 233e
000000e0: 56fd bdbc f744 d8bd 5611 773e 6aae b03d
000000f0: 2186 dc3d bab7 243e 7cd2 7a3d 41a2 663e
00000100: 66a5 b33c 3cab 003e 0f5b d33d a665 bcbd
00000110: 40ed 2abe 23d6 093d 6e9a 333e 813b 54be
00000120: ef6d 533e 8818 5e3e b9bb 87ba 4788 4d3e
00000130: 109b 3ebe c17f 83bd 221c 823e 157b 413e
00000140: 0995 8b3e 53ed 3a3b 6ccd a1be 567b 523e
00000150: 4e0f 173e 3455 003d d408 a83c 2993 d1bd
00000160: 760b 7fbe 8413 c7bd daf6 81be 78cf 33be
00000170: f952 f1b9 b229 23be 0510 383e 6135 99be
00000180: 4ca5 4bbe c435 c93c c6a8 67bd 0b56 07be
00000190: 8e39 933d 503d 6fbe a084 053e f132 25be
000001a0: a9a9 10be 2c5e eb3d b716 ccbc 006c 6f3e
000001b0: 118b 973d f4b7 87bc 6c02 47be bc9b 18be
000001c0: 46b5 8cbe 9256 2bbe 69dd 9ebe dc3a 54be
000001d0: 5e7c 573e 98d5 b6bd 2727 8cbd bbca 80bd
000001e0: 0474 c63d 100a adbe f864 b53d a676 9c3c
000001f0: a1e1 4b3d 18ad 30ba 302b b1bd 869f 9d3d
00000200: e109 ab3d 1bb2 29be 790b 99bd e462 63be
00000210: 66b6 0fba b046 a63d e746 823b f03a 623e
00000220: 968b a2ba 7f01 593e c8a8 edbd 4ca6 a23c
00000230: 24f9 2a3e f32b 073e 4727 56bd 41bd 963d
00000240: c28d 693d 000e 94be b86f 6b3e 95c3 ecbd
00000250: c122 243e 2f65 20be f01a cdbd 2821 9f3e
00000260: cbf1 2d3e c0e8 dfbd 0df2 523d 1e4a 24be
00000270: 00e0 813c a3f0 573e 8fc1 783e f81b 9ebd
00000280: 4f5a 4abe 986c c5bc bc2a 103e 741a 17be
00000290: dbec f13d 4fb9 26be 0f50 05be 1366 bb3d
000002a0: e1e7 b43d 618f 61be 139f d4bd 094a 53be
000002b0: db9b eebd 9e82 2fbd 1f12 86bd c98e 133e
000002c0: f59d 24be ba9d d8be 1c5b 883d bab3 b33d
000002d0: c8ec 6cbd fa3c efbe 1590 bb3d 89fc a3be
000002e0: 6a20 8cbe 5a3d 103c 68fd ed3c 1c4b 443e
000002f0: 1c60 293e 65a9 89be 6528 a7be d939 cabe
00000300: 6e66 a3bd 4c27 813e 4454 85be e70a 933d
00000310: be64 e13d 2d79 50bd 2f44 6dbe 5219 433b
00000320: d2e4 cf3d 38ba 323e 676d 533e a2df 56be
00000330: 9ddc a03d b683 fd3d 1b32 4bbd 7338 373e
00000340: 54b6 b0be dcdc 7dbe 1943 d4bd a5b0 58be
00000350: f249 3b3e 255b 853d 1fbc f1bd 0f5a 6b3e
00000360: da90 45bd 0ffc d1bd 3850 5ebe 9b09 89be
00000370: 531f 03be 39bc 00be 26ae 963d cdae 983e
00000380: e206 7c3e e800 4a3e d849 513c c008 2bbe
00000390: 579a 8bbd 93d2 edbd 43d7 23be 1d6e 6cbe
000003a0: c924 173c 7d3a 413e 7952 56bc 6057 6bbe
000003b0: 0ec9 c93b 98d5 c0bd 57ce 853e a3e1 183e
000003c0: 583e ae3d 49ab 33bd bc04 9ebd 5b63 87bd
000003d0: 379f 41be 3e7f 393e 5821 963e 89c9 813e
000003e0: fd47 103d 78db 833e a875 a03d 7e2a 693e
000003f0: 7242 493e 5a63 923e 1446 93bd bcc3 583e

transformer_blocks.0.attn.out.bias f4 [16]
0.059439767 -0.003904142 0.15424971 -0.07640093 0.13714485 -0.1884803 -0.015250426 -0.115862876
-0.1470438 0.21600524 -0.020777296 0.3747896 -0.053311855 0.25953877 0.021969914 0.13708459
00000000: 1d77 733d a2dc 7fbb a3f3 1d3e 1778 9cbd
00000010: b36f 0c3e fb00 41be ecdc 79bc 8449 edbd
00000020: a692 16be 7a30 5d3e 2635 aabc 6ce4 bf3e
00000030: 885d 5abd 44e2 843e 40fa b33c e75f 0c3e

transformer_blocks.0.norm1.weight f4 [16]
1.0031446 0.96226364 1.3222743 0.99006987 0.9412562 0.9852351 0.7980199 0.931403
0.9023726 0.84820145 0.9943943 0.966954 0.9110362 0.93006325 0.9981034 0.89869666
00000000: 0b67 803f e956 763f 4940 a93f 3875 7d3f
00000010: 2bf6 703f 5e38 7c3f 084b 4c3f 6d70 6e3f
00000020: e401 673f bb23 593f a090 7e3f 4c8a 773f
00000030: ab39 693f a018 6e3f b483 7f3f fc10 663f

transformer_blocks.0.norm1.bias f4 [16]
0.017006565 0.086325265 0.087624565 0.06384261 -0.0853138 -0.08668512 0.02522774 0.1525283
0.0028013499 -0.13864155 -0.119519114 -0.08856433 -0.10219897 -0.0489129 0.08969206 0.16878118
00000000: 5a51 8b3c 4dcb b03d 8274 b33d eabf 823d
00000010: 00b9 aebd f887 b1bd 68aa ce3c 6130 1c3e
00000020: da96 373b 0df8 0dbe 70c6 f4bd 3761 b5bd
00000030: b24d d1bd e558 48bd 79b0 b73d f9d4 2c3e

transformer_blocks.0.mlp.0.weight f4 [64, 16]
0.1501229 -0.004805533 -0.17565627 0.2978912 0.18024862 -0.18604684 -0.13153654 0.012186694
0.0007477759 0.08448868 -0.048078902 -0.14679381 0.043265857 0.0051042754 0.07713212 0.19989787
-0.00069220713 -0.15879825 0.05393798 -0.13905717 0.3292272 -0.16121647 0.18531238 0.16355161
0.123614214 -0.09280419 0.15636742 0.0048364885 0.0275945 0.049306236 -0.17344126 0.09300221
-0.02115209 -0.28634045 0.100402914 -0.053182676 0.18865938 -0.23862676 0.04304265 0.09669171
-0.20682128 0.12811217 -0.17453064 -0.03471852 -0.11820791 -0.039433256 -0.009385261 -0.113259986
-0.033705845 -0.096596316 -0.108895496 -0.10443338 0.014812266 -0.17080866 0.08533909 0.11984994
0.1985086 0.0972383 -0.121386185 0.013691668 0.1704979 -0.0020051983 -0.10206186 0.07812552
0.27093455 0.14380628 -0.10462751 0.19420709 0.0040044207 0.10312457 -0.01453278 -0.120498076
-0.06577808 0.011173811 0.12849218 0.06474331 -0.021938393 -0.06428198 -0.07106155 0.058832113
0.09605647 -0.21788849 0.06765664 0.23259737 0.07857926 -0.10650394 -0.12201025 -0.13113336
-0.14020391 -0.14088678 -0.24528211 0.10483956 -0.29650214 0.1061421 -0.010272533 -0.20880814
-0.22176425 -0.1966977 -0.119495414 0.074059196 0.11356327 0.19515677 0.063385546 -0.06133039
-0.18225035 -0.07631211 -0.063943416 -0.057731777 0.13044794 -0.13075702 -0.1772905 0.09717443
-0.09227829 0.17714816 -0.17706373 -0.14648667 0.160614 -0.2264109 -0.0124961445 0.08010395
0.14075002 -0.285555 0.17044382 0.004607441 -0.19257835 0.1271747 0.05275828 -0.14663856
-0.22040457 0.070492424 -0.012991201 -0.024435336 -0.106359445 0.25764754 0.18625753 -0.089197844
0.1125808 -0.14581212 -0.21850644 -0.0792545 -0.06457832 -0.0032915748 -0.2508036 0.123852715
-0.07358701 0.04762086 -0.13574214 0.08798182 -0.21914126 0.0624917 0.09927013 0.037714902
0.15078121 -0.21429074 -0.2515209 -0.057674885 -0.15741163 -0.06273087 -0.08952057 -0.15932027
0.026260864 0.19330722 -0.112258956 -0.09381858 0.054688536 -0.0030469927 -0.04592536 0.0100641465
0.33067998 -0.21732078 0.1612031 0.045062512 -0.30599388 0.059657197 0.22329761 -0.19106442
0.32113764 -0.1274394 0.21918553 0.1843205 -0.14557162 -0.6396333 -0.23302141 -0.27310616
0.32051072 -0.2937476 0.0035285233 -0.37372273 0.32854098 -0.016274147 0.27665877 0.55055994
0.113961846 0.21632633 -0.12585355 -0.24440424 -0.14292915 -0.074736245 0.09507267 0.046250507
0.19536076 0.009575838 -0.0062659085 -0.16754475 -0.18084821 -0.002710839 -0.13746282 -0.10093177
-0.16509551 -0.2015954 0.20836815 -0.047712334 0.17514251 0.03787952 -0.06412094 -0.11094579
0.18255445 0.011746945 -0.20207414 -0.074007645 -0.099312745 0.07751369 0.15849325 -0.051981863
0.023153916 0.16137037 -0.1505916 0.19465585 0.0101985615 -0.1578574 0.19903108 -0.14485948
-0.095580116 -0.0008624155 -0.029099021 0.049439922 -0.054636795 0.13233426 -0.1391229 -0.078833446
-0.12159795 0.1482003 0.09227598 0.04399603 -0.12657039 -0.104900576 -0.038662583 0.2948527
-0.027572364 0.059728764 -0.13036121 -0.08596559 -0.22739226 0.024069114 0.13574493 -0.16085424
00000000: d1b9 193e bc77 9dbb 3ddf 33be 3285 983e
00000010: 1893 383e 1083 3ebe 84b1 06be b3aa 473c
00000020: 6406 443a 6708 ad3d 62ee 44bd 1e51 16be
00000030: 8a37 313d c441 a73b 72f7 9d3d 07b2 4c3e
00000040: 3c75 35ba 029c 22be 12ee 5c3d 0165 0ebe
00000050: 7890 a83e ee15 25be 87c2 3d3e 137a 273e
00000060: 7329 fd3d 2010 bebd c81e 203e 687b 9e3b
00000070: dc0d e23c 56f5 493d 969a 31be f177 be3d
00000080: 2647 adbc 379b 92be 0ba0 cd3d 14d6 59bd
00000090: ed2f 413e 935a 74be 7d4d 303d 4e06 c63d
000000a0: f5c8 53be d62f 033e 29b8 32be 0235 0ebd
000000b0: fd16 f2bd c484 21bd a3c4 19bc daf4 e7bd
000000c0: 240f 0abd 4ad4 c5bd 9a04 dfbd 2be1 d5bd
000000d0: 26af 723c 77e8 2ebe 43c6 ae3d e373 f53d
000000e0: d745 4b3e e024 c73d 5299 f8bd 0553 603c
000000f0: 0097 2e3e a569 03bb cf05 d1bd 4600 a03d
00000100: efb7 8a3e f441 133e f346 d6bd 39de 463e
00000110: 8437 833b f932 d33d e61a 6ebc b2c7 f6bd
00000120: a8b6 86bd 5c12 373c 7493 033e 2498 843d
00000130: 25b8 b3bc 45a6 83bd b888 91bd f1f9 703d
00000140: 41b9 c43d 291e 5fbe 918f 8a3d 012e 6e3e
00000150: 2aee a03d bd1e dabd 83e0 f9bd d347 06be
00000160: 9d91 0fbe a044 10be 3c2b 7bbe 20b6 d63d
00000170: 21cf 97be 0861 d93d 204e 28bc cdd1 55be
00000180: 2b16 63be 1f6b 49be 03ba f4bd 59ac 973d
00000190: dc93 e83d 2dd7 473e 48d0 813d 9335 7bbd
000001a0: d69f 3abe 8649 9cbd c4f4 82bd 2878 6cbd
000001b0: 2594 053e 2be5 05be a48b 35be 6303 c73d
000001c0: 66fc bcbd 5466 353e 3250 35be 9a00 16be
000001d0: ff77 243e 42d8 67be a1bc 4cbc 8a0d a43d
000001e0: c620 103e 4434 92be d388 2e3e 04fa 963b
000001f0: 4233 45be 163a 023e 1119 583d 6b28 16be
00000200: bcb1 61be 555e 903d 0cd9 54bc 9d2c c8bc
00000210: fbd2 d9bd 61ea 833e 4bba 3e3e 5cad b6bd
00000220: c390 e63d c64f 15be 27c0 5fbe 2f50 a2bd
00000230: a341 84bd 76b7 57bb 5469 80be 7ea6 fd3d
00000240: c9b4 96bd 170e 433d fdff 0abe d02f b43d
00000250: 9166 60be 4cf7 7f3d 234e cb3d f17a 1a3d
00000260: 6466 1a3e 086f 5bbe 59c7 80be 803c 6cbd
00000270: 8430 21be 0b79 80bd 9056 b7bd da24 23be
00000280: 0621 d73c 54f2 453e 06e8 e5bd f523 c0bd
00000290: 1601 603d 0eb0 47bb 3b1c 3cbd 17e4 243c
000002a0: e34e a93e 5789 5ebe 6d12 253e 7893 383d
000002b0: 3bab 9cbe 1b5b 743d 21a8 643e 64a6 43be
000002c0: 276c a43e 797f 02be 2c72 603e 83be 3c3e
000002d0: ba10 15be 02bf 23bf 2a9d 6ebe 92d4 8bbe
000002e0: fb19 a43e 1666 96be cc3e 673b 9658 bfbe
000002f0: 8636 a83e 5c51 85bc 38a6 8d3e 7ff1 0c3f
00000300: d464 e93d a684 5d3e c1df 00be 1b45 7abe
00000310: 055c 12be 510f 99bd 76b5 c23d 2c71 3d3d
00000320: a70c 483e fae3 1c3c 4052 cdbb da90 2bbe
00000330: 4630 39be 55a8 31bb 0ec3 0cbe 51b5 cebd
00000340: cc0e 29be 066f 4ebe 765e 553e 026e 43bd
00000350: 8f58 333e 8e27 1b3d d751 83bd 8c37 e3bd
00000360: 8eef 3a3e 4276 403c 86ec 4ebe 5291 97bd
00000370: 7b64 cbbd 7fbf 9e3d 0e4c 223e efea 54bd
00000380: 48ad bd3c 463e 253e af34 1abe dd53 473e
00000390: de17 273c 5fa5 21be cece 4b3e 0b56 14be
000003a0: 82bf c3bd b913 62ba 1261 eebc 8481 4a3d
000003b0: d5ca 5fbd a282 073e 3c76 0ebe 6e73 a1bd
000003c0: 5908 f9bd d2c1 173e 30fb bc3d 2e35 343d
000003d0: ab9b 01be 1dd6 d6bd a85c 1ebd eff6 963e
000003e0: 70df e1bc 26a6 743d 697d 05be ba0e b0bd
000003f0: 84d9 68be 972c c53c b800 0b3e f9b6 24be

transformer_blocks.0.mlp.0.bias f4 [64]
0.07547122 -0.15327433 -0.2037097 0.11794788 0.10331729 -0.1553415 -0.1971095 -0.15509395
0.09072685 0.16469067 -0.2194248 0.028356528 0.06952229 0.0029303918 0.021296537 0.20292209
-0.120466456 0.06788365 -0.068740755 0.0022125659 -0.17410311 0.020994395 -0.124026336 0.071918905
-0.3199914 0.12554806 0.066502005 0.13679884 -0.23334056 -0.15181676 0.112413526 -0.12745
-0.31721196 0.15493213 -0.25933945 -0.062525995 -0.00536923 -0.14311421 0.09167661 0.057187602
-0.22954826 -0.111249916 0.19871727 -0.0038373286 -0.076728895 -0.12150159 -0.18417814 -0.16593616
0.15965685 -0.024128206 -0.11385813 -0.4896543 0.06187147 -0.057845253 -0.07150185 0.04334482
-0.029597476 -0.09255862 -0.20943561 -0.5084175 -0.068884216 0.08139922 0.041558865 0.016066402
00000000: a890 9a3d f2f3 1cbe 4799 50be a88e f13d
00000010: 0498 d33d d811 1fbe 13d7 49be f3d0 1ebe
00000020: 00cf b93d aca4 283e e5b0 60be f34b e83c
00000030: b461 8e3d d10b 403b 1376 ae3c cfca 4f3e
00000040: 1eb7 f6bd 9506 8b3d f4c7 8cbd b200 113b
00000050: 1648 32be 70fc ab3c 8501 febd 384a 933d
00000060: ead5 a3be ac8f 003e 3432 883d ff14 0c3e
00000070: d4f0 6ebe da75 1bbe 1039 e63d 4182 02be
00000080: 9b69 a2be 87a6 1e3e 24c8 84be a10d 80bd
00000090: 5ef0 afbb 888c 12be f2c0 bb3d 8c3d 6a3d
000000a0: b30e 6bbe ffd6 e3bd 8a7c 4b3e b17b 7bbb
000000b0: 0a24 9dbd d3d5 f8bd 3299 3cbe 2beb 29be
000000c0: 167d 233e 84a8 c5bc 742e e9bd f8b3 fabe
000000d0: f06c 7d3d 25ef 6cbd 906f 92bd 578a 313d
000000e0: 6876 f2bc 608f bdbd 4a76 56be a627 02bf
000000f0: 2b13 8dbd a2b4 a63d a139 2a3d b09d 833c

transformer_blocks.0.mlp.2.weight f4 [16, 64]
0.011736983 0.030623306 -0.049052194 -0.07432308 -0.045948554 -0.021608846 0.01044769 -0.01013204
0.08948054 -0.014158365 0.020125838 0.11993467 -0.0585644 0.0032455095 -0.020972015 -0.08818998
0.044127878 0.011791976 -0.04241563 -0.057787966 0.03369538 0.002301586 0.12452941 -0.029828817
0.0467307 0.026682284 0.082322225 -0.07965592 -0.04765942 -0.08523425 -0.039852526 -0.04503308
0.020626146 0.05869331 -0.017332826 0.274558 -0.055193953 0.01156708 -0.057083946 -0.10732382
-0.07651156 0.045337297 0.047517836 -0.04826929 -0.0056741424 0.020904977 -0.06993617 0.031022703
-0.07555467 0.018451054 -0.14161149 -0.17433557 -0.040872425 -0.015711935 -0.03001367 0.060707893
-0.013478366 -0.002414501 0.040363975 -0.0516172 0.03130371 0.026656708 0.102994606 -0.031017598
-0.009844584 0.019129539 -0.017323809 0.037747085 -0.0056081098 -0.013022516 -0.0051997546 -0.0054812185
0.02425508 0.022814414 0.0007677469 0.035387926 -0.0053471024 0.005928895 0.006582614 -0.008629909
-0.03573614 0.0036519703 0.0018668128 0.040508404 0.0018562824 -0.05350727 -0.026594497 0.0023942513
0.043393947 -0.033072446 -0.0010130721 -0.023453457 0.02461608 -0.015332341 0.018556606 0.021696333
0.116579324 -0.017000595 -0.026542177 0.0027335254 0.0005098914 -0.02749987 0.005451627 0.014406704
0.00879003 -0.01750872 -0.020159775 -0.0023515 -0.021172242 -0.012506099 0.0077951183 0.031024447
0.006552813 0.0058622896 0.009662064 -0.05869963 -0.0013929941 -0.060881082 0.005534214 -0.014563408
-0.017664155 0.0013378953 0.004286049 -0.03752864 -0.014870624 0.002152249 0.011297243 -0.02390706
-0.14068483 -0.0040624565 0.0071329256 0.0055410764 0.015390476 0.010207091 -0.0012006629 -0.018230721
0.012008539 0.029876884 -0.0069932914 -0.18399847 0.0039513437 0.03450632 0.0011608249 -0.017532306
-0.14650378 0.005966451 0.01796919 0.020132333 0.016707914 0.16136506 -0.04972789 -0.027053207
-0.10939684 0.001679186 0.020805798 -0.108967945 0.06812426 -0.017844766 0.04115036 -0.0054477802
0.0005514728 -0.049972344 -0.19040617 -0.25945 -0.005448702 0.00902937 0.0049927905 0.025848204
0.028126026 0.0057391757 0.033060357 -0.032973085 -0.023242477 -0.015202092 -0.055872 0.010330812
0.004334745 0.012150249 0.09131402 -0.11740056 0.015244327 0.12739119 0.029572057 0.021144558
0.018756783 -0.009700869 0.0515935 -0.030491004 -0.003249446 0.019476647 -0.05618291 -0.028183874
-0.08286501 -0.019399406 -0.0808258 -0.05031402 0.06682682 -0.028450528 -0.013613309 -0.08757681
0.12871256 0.026520247 0.016767578 0.07997783 0.079048306 0.037835922 -0.034569345 -0.09333751
0.024968358 -0.026053824 0.05033929 -0.13880782 -0.039268125 0.01975732 -0.012240652 -0.14772902
-0.031264946 -0.08623001 0.056140624 0.13618945 0.085885614 -0.026555697 -0.038718414 -0.04247333
0.050658416 0.0025713248 0.013890882 0.057521135 0.028166069 0.05889967 0.07014142 0.058664773
-0.07754106 0.023327861 -0.011472854 -0.03170162 0.04523009 -2.9202129e-05 -0.13471863 -0.035005827
-0.044002347 0.057161976 0.16452521 -0.19926755 0.08659212 0.046408515 0.016696522 0.0407509
-0.019327756 -0.040996976 -0.048377957 -0.029982466 0.042086206 0.012459558 -0.13177636 0.021551853
00000000: 7a4c 403c badd fa3c f4ea 48bd b336 98bd
00000010: 8d34 3cbd 0905 b1bc ca2c 2b3c db00 26bc
00000020: 9341 b73d 7df8 67bc f1de a43c 4fa0 f53d
00000030: 39e1 6fbd 9db2 543b 81cd abbc f39c b4bd
00000040: 6fbf 343d 2233 413c 03bc 2dbd 13b3 6cbd
00000050: 2b04 0a3d 35d6 163b 4609 ff3d 905b f4bc
00000060: b168 3f3d ce94 da3c 8e98 a83d a522 a3bd
00000070: 8636 43bd 4b8f aebd 673c 23bd 9b74 38bd
00000080: 2af8 a83c 6568 703d 92fd 8dbc de92 8c3e
00000090: 0e13 62bd da83 3d3c dbd0 69bd 97cc dbbd
000000a0: 18b2 9cbd 9ab3 393d 10a2 423d 05b6 45bd
000000b0: 28ee b9bb ea40 ab3c b23a 8fbd 5323 fe3c
000000c0: 68bc 9abd aa26 973c 9a02 11be 0685 32be
000000d0: d869 27bd 51b6 80bc 3adf f5bc d7a8 783d
000000e0: 5dd4 5cbc 9b3c 1ebb b254 253d 8f6c 53bd
000000f0: 5238 003d 2b5f da3c d6ee d23d 9e18 febc
00000100: 2e4b 21bc 8db5 9c3c a9ea 8dbc b09c 1a3d
00000110: 3cc4 b7bb 645c 55bc b462 aabb cb9b b3bb
00000120: 97b2 c63c 4be5 ba3c 9f42 493a eef2 103d
00000130: bf36 afbb 2d47 c23b f8b2 d73b 7664 0dbc
00000140: 0f60 12bd e555 6f3b d8af f43a 24ec 253d
00000150: 804e f33a 702a 5bbd b4dc d9bc dfe8 1c3b
00000160: dabd 313d f976 07bd 0fc9 84ba 7721 c0bc
00000170: a9a7 c93c 8034 7bbc 0604 983c 82bc b13c
00000180: 24c1 ee3d d544 8bbc fb6e d9bc f224 333b
00000190: 3caa 053a 6847 e1bc 90a3 b23b 190a 6c3c
000001a0: 0f04 103c 726e 8fbc 1d26 a5bc a01b 1abb
000001b0: 6971 adbc 62e6 4cbc 316e ff3b fb26 fe3c
000001c0: fbb8 d63b 7318 c03b a24d 1e3c 066f 70bd
000001d0: 2095 b6ba 715e 79bd 5a58 b53b 5c9b 6ebc
000001e0: 6bb4 90bc 515c af3a fc71 8c3b a2b7 19bd
000001f0: eba3 73bc bf0c 0d3b 1218 393c bdd8 c3bc
00000200: af0f 10be 5b1e 85bb 51bb e93b eb91 b53b
00000210: 5628 7c3c a53b 273c 905f 9dba 9858 95bc
00000220: 77bf 443c 5ec0 f43c fb27 e5bb 186a 3cbe
00000230: 467a 813b 8056 0d3d d226 983a e99f 8fbc
00000240: 1605 16be 3882 c33b 1f34 933c 90ec a43c
00000250: 09df 883c e23c 253e 79af 4bbd b09e ddbc
00000260: 730b e0bd 2218 dc3a ec70 aa3c 962a dfbd
00000270: bb84 8b3d 302f 92bc 488d 283d 4b83 b2bb
00000280: b790 103a cdaf 4cbd d6f9 42be a1d6 84be
00000290: 068b b2bb ecef 133c 909a a33b 9dbf d33c
000002a0: 8d68 e63c b20f bc3b 4c6a 073d c90e 07bd
000002b0: 0267 bebc 3212 79bc 0ada 64bd 9142 293c
000002c0: 7a0a 8e3b d711 473c d802 bb3d b46f f0bd
000002d0: 57c3 793c d672 023e 1941 f23c 5a37 ad3c
000002e0: d3a7 993c 65f0 1ebc b553 533d 45c8 f9bc
000002f0: a8f4 54bb 7d8d 9f3c 0d20 66bd dee1 e6bc
00000300: 21b5 a9bd 81eb 9ebc ff87 a5bd 1316 4ebd
00000310: 80dc 883d 1511 e9bc 5b0a 5fbc 785b b3bd
00000320: 3acd 033e fd40 d93c 295c 893c 6bcb a33d
00000330: 14e4 a13d d7f9 1a3d 9698 0dbd bd27 bfbd
00000340: 718a cc3c d46e d5bc 9230 4e3d a323 0ebe
00000350: 9dd7 20bd 1ada a13c 048d 48bc 4746 17be
00000360: ac0f 00bd 5c99 b0bd b6f3 653d 3f75 0b3e
00000370: cce4 af3d 558b d9bc 3397 1ebd 84f8 2dbd
00000380: 337f 4f3d ac83 283b 9596 633c 489b 6b3d
00000390: 87bc e63c c840 713d 4ea6 8f3d 794a 703d
000003a0: d9cd 9ebd 121a bf3c a3f8 3bbc 8fd9 01bd
000003b0: 3043 393d 18f7 f4b7 aef3 09be 4562 0fbd
000003c0: ce3b 34bd ad22 6a3d 4c79 283e cb0c 4cbe
000003d0: 3657 b13d db16 3e3d 25c7 883c 6aea 263d
000003e0: 3e55 9ebc 72ec 27bd f727 46bd ca9d f5bc
000003f0: 9662 2c3d 2d23 4c3c 62f0 06be 838d b03c

transformer_blocks.0.mlp.2.bias f4 [16]
-0.005983738 0.015781565 -0.053885188 -0.018058952 0.00047039974 -0.05112755 -0.078052394 0.04815723
-0.042068742 -0.055993836 -0.03194532 -0.042012487 -0.0462579 -0.02471675 0.0064763604 0.012101176
00000000: 3c13 c4bb 5748 813c b7b6 5cbd 5ef0 93bc
00000010: fc9f f639 1f6b 51bd efd9 9fbd 8440 453d
00000020: 4650 2cbd cb59 65bd 19d9 02bd 4915 2cbd
00000030: ec78 3dbd c87a cabc a637 d43b 0344 463c

transformer_blocks.0.norm2.weight f4 [16]
0.96392363 0.7235599 0.81504786 0.96281284 0.8021474 1.0153548 0.6952173 0.82450914
0.89746135 0.7772136 0.81406236 0.8549042 0.9070135 0.9412348 0.79091465 0.94489527
00000000: b3c3 763f 393b 393f faa6 503f e77a 763f
00000010: 8859 4d3f 25f7 813f c3f9 313f 0813 533f
00000020: 07c0 653f 78f7 463f 6466 503f 00db 5a3f
00000030: 0932 683f c4f4 703f 6279 4a3f a8e4 713f

transformer_blocks.0.norm2.bias f4 [16]
0.029936207 0.09821695 0.1360077 0.09754942 -0.1432832 -0.11078275 -0.14558633 0.16517122
0.013567705 -0.12183935 -0.13649482 -0.23421381 -0.07086349 -0.026413372 0.009113763 0.008111828
00000000: c73c f53c f825 c93d 9a45 0b3e fec7 c73d
00000010: d5b8 12be 11e2 e2bd 9514 15be a522 293e
00000020: 144b 5e3c e986 f9bd 4cc5 0bbe bfd5 6fbe
00000030: e120 91bd db60 d8bc e551 153c 79e7 043c

transformer_blocks.1.attn.qkv.weight f4 [48, 16]
0.08705923 -0.2479007 0.16763508 0.023504496 -0.16545975 0.19724536 -0.08713326 0.122062564
0.2349833 0.03706199 0.018152446 -0.10130638 -0.0049445033 0.22663012 0.13300633 -0.08876827
-0.108303666 -0.19298583 0.024557859 -0.1747323 0.0068379045 0.21712685 -0.0608519 0.08598992
-0.08028066 -0.1272949 0.07731989 0.1859251 0.23329091 0.063765794 0.0012847185 0.14851534
-0.024386048 -0.07178599 -0.12695405 -0.053618997 0.16596866 0.0054055452 -0.090726465 0.24213007
-0.21336222 -0.075059086 0.20577541 -0.021629691 -0.009606868 -0.06997457 0.09523958 -0.1242311
-0.2394337 -0.23029849 0.18879816 0.14786392 -0.09068146 -0.23081481 -0.19618702 -0.06465232
0.01618886 -0.13462445 0.15058568 -0.1403363 0.060758144 0.0812988 0.21546683 -0.03811094
-0.06377557 0.053777665 -0.21821156 -0.20376313 -0.12969905 0.18893564 0.16732761 0.1216903
-0.05398968 -0.21945673 0.077451676 -0.013844818 -0.030405402 -0.10688302 -0.11129823 -0.0543468
0.13994992 -0.12377751 0.19496533 0.15905571 -0.051044464 0.026696116 -0.1833368 -0.14944997
-0.14974725 -0.069438875 0.14008719 0.23314431 -0.0770306 -0.107575685 -0.23328474 0.042125642
0.13626474 -0.044522434 0.09354374 0.23535055 -0.15247715 0.0795168 -0.043832123 0.10186103
-0.031897187 0.19320852 -0.07806134 0.20676953 -0.03189954 -0.0523493 0.055840075 -0.23743933
0.054395378 0.07324937 0.12212157 0.07018837 -0.08161667 -0.00010153651 0.040576577 0.10419333
0.1467818 -0.007993966 0.13882804 -0.11894533 0.13220298 -0.025249988 -0.024799436 0.15978834
0.2407656 0.13299829 0.15191248 -0.095958285 -0.19284165 0.090210415 -0.10479153 -0.179144
-0.09743428 -0.1326064 -0.2096679 0.25381052 0.16673565 -0.16031215 0.002745381 0.20671463
0.19766365 0.06134908 -0.2776041 -0.235642 0.124993 -0.08954588 -0.040030576 0.0015233525
-0.06579832 -0.013167985 -0.11753313 -0.11086048 -0.10756563 0.12566008 0.034834087 -0.11508289
-0.204371 -0.031744696 0.18102233 0.27993533 0.17317837 0.22273633 -0.108107656 -0.0041020624
0.085212104 -0.04822763 0.1352708 0.15148877 0.061394844 -0.21949145 0.1728479 -0.10406588
0.048559647 -0.19423719 -0.1511664 0.12934075 -0.15731134 0.19613177 -0.11368656 -0.17524244
0.05617545 -0.20547181 -0.18163195 0.1130318 -0.08253668 -0.23831066 -0.2016311 0.07914552
0.06547783 0.06605414 0.112711556 -0.16915235 -0.16816445 -0.27032724 0.15448076 0.046920925
0.058765195 0.19589454 -0.075280264 -0.13537169 0.26444227 0.14467415 0.06458403 -0.17166135
0.020375805 0.2974977 0.24301073 0.06900724 -0.034616686 0.037535142 -0.39665484 -0.12290205
-0.12074998 0.14026849 -0.20469026 0.025334673 0.19363268 0.046896532 -0.14125706 -0.0109386565
0.033452827 -0.10490856 -0.067900665 0.09205729 0.20339099 -0.22277118 0.05555106 0.38668874
0.32003894 0.23186772 -0.196009 0.09734176 0.11777631 0.0683284 -0.14829974 0.13750397
-0.14559337 0.04051425 0.09110603 0.17084944 -0.078538135 0.22137676 0.21714684 -0.24471548
-0.12434684 -0.15662725 -0.05918594 -0.064437784 0.07725196 -0.030573921 -0.09090934 -0.048967578
00000000: 1c4c b23d aed9 7dbe 88a8 2b3e 808c c03c
00000010: 486e 29be b0fa 493e ec72 b2bd f0fb f93d
00000020: 769f 703e 50ce 173d 70b4 943c b879 cfbd
00000030: 8005 a2bb ba11 683e d032 083e 24cc b5bd
00000040: 50ce ddbd 149e 45be 902d c93c 06ed 32be
00000050: 8010 e03b 8056 5e3e d83f 79bd 7c1b b03d
00000060: 306a a4bd 9859 02be e459 9e3d 2663 3e3e
00000070: d0e3 6e3e a497 823d 0064 a83a 6814 183e
00000080: 40c5 c7bc 8804 93bd 3e00 02be 989f 5bbd
00000090: b0f3 293e 0021 b13b ccce b9bd f2f0 773e
000000a0: a07b 5abe 94b8 99bd cab6 523e c030 b1bc
000000b0: 2066 1dbc d44e 8fbd f80c c33d e06c febd
000000c0: 1c2e 75be 5ed3 6bbe 4e54 413e a469 173e
000000d0: 34b7 b9bd b85a 6cbe 40e5 48be 7068 84bd
000000e0: 809e 843c feda 09be 2233 1a3e 52b4 0fbe
000000f0: 88dd 783d fc7f a63d 56a3 5c3e 381a 1cbd
00000100: c49c 82bd f845 5c3d da72 5fbe 48a7 50be
00000110: d4cf 04be 5878 413e ee57 2b3e c438 f93d
00000120: 4824 5dbd 44b9 60be fc9e 9e3d 60d5 62bc
00000130: c014 f9bc 7ce5 dabd 54f0 e3bd c09a 5ebd
00000140: 084f 0f3e 107f fdbd fea4 473e 80df 223e
00000150: 0014 51bd d0b1 da3c a4bc 3bbe 6a09 19be
00000160: 5857 19be f835 8ebd 0473 0f3e 62bd 6e3e
00000170: 38c2 9dbd a450 dcbd 32e2 6ebe f08b 2c3d
00000180: fc88 0b3e 285d 36bd dc93 bf3d bcff 703e
00000190: f822 1cbe b4d9 a23d 5089 33bd 849c d03d
000001a0: a0a6 02bd 74d8 453e a0de 9fbd 64bb 533e
000001b0: 18a9 02bd 386c 56bd 90b8 643d 4c23 73be
000001c0: b0cd 5e3d c403 963d e01a fa3d ecbe 8f3d
000001d0: a426 a7bd 00f0 d4b8 a033 263d 5063 d53d
000001e0: f84d 163e 20f9 02bc f028 0e3e 9c99 f3bd
000001f0: 3860 073e 10d9 cebc 3028 cbbc 8e9f 233e
00000200: 428b 763e b430 083e f28e 1b3e c785 c4bd
00000210: 4878 45be 3dc0 b83d f19c d6bd 8671 37be
00000220: a08b c7bd f9c9 07be 2fb3 56be 74f3 813e
00000230: c0bc 2a3e de28 24be daeb 333b 00ad 533e
00000240: 5768 4a3e 2c49 7b3d 2022 8ebe 234c 71be
00000250: 54fc ff3d d563 b7bd 1af7 23bd 3aab c73a
00000260: 45c1 86bd 88be 57bc 36b5 f0bd d20a e3bd
00000270: 5e4b dcbd 09ad 003e 30ae 0e3d 94b0 ebbd
00000280: a246 51be ba06 02bd eb5d 393e af53 8f3e
00000290: ac55 313e fe14 643e 8c67 ddbd 986a 86bb
000002a0: af83 ae3d 568a 45bd 6e84 0a3e df1f 1b3e
000002b0: 2979 7b3d 5ec2 60be 0aff 303e 7e20 d5bd
000002c0: 7be6 463d 1de6 46be 5dcb 1abe e771 043e
000002d0: 3916 21be c4d6 483e 80d4 e8bd c172 33be
000002e0: 3b18 663d 3467 52be bafd 39be 377d e73d
000002f0: fe08 a9bd b607 74be 6278 4ebe 0c17 a23d
00000300: 3e19 863d 6547 873d 51d5 e63d 4636 2dbe
00000310: 4d33 2cbe 5568 8abe 3430 1e3e 2830 403d
00000320: c6b3 703d 9498 483e 8a2c 9abd e09e 0abe
00000330: fa64 873e 7625 143e a244 843d fec7 2fbe
00000340: 29eb a63c 9e51 983e ced7 783e ab53 8d3d
00000350: 3aca 0dbd 73be 193d 5816 cbbe 12b4 fbbd
00000360: c44b f7bd 8ba2 0f3e 539a 51be a98a cf3c
00000370: a547 463e 9416 403d b1a5 10be 0d38 33bc
00000380: d505 093d 4dda d6bd 810f 8bbd 8888 bc3d
00000390: ba45 503e 211e 64be 8289 633d 11fc c53e
000003a0: 25dc a33e bb6e 6d3e 95b6 48be 1e5b c73d
000003b0: b534 f13d c3ef 8b3d e3db 17be d7cd 0c3e
000003c0: 6e16 15be 45f2 253d cc95 ba3d 28f3 2e3e
000003d0: 9ad8 a0bd 97b0 623e be5b 5e3e b296 7abe
000003e0: 8ea9 febd e562 20be f56c 72bd f5f7 83bd
000003f0: 4736 9e3d 2976 fabc ad2e babd 3a92 48bd

transformer_blocks.1.attn.qkv.bias f4 [48]
-0.18851268 -0.18430498 -0.20784685 -0.13511202 -0.19565004 0.23351121 -0.14671004 0.17245123
-0.22253455 -0.10596103 -0.0926848 0.15881047 0.15800452 -0.30836168 -0.1948065 -0.006941132
0.0532432 -0.0018096119 -0.06760697 -0.07414783 -0.13591069 -0.016719056 -0.23306027 -0.15334538
0.039372146 -0.10074709 -0.060356844 -0.052522324 0.07941943 0.19285512 -0.11831953 0.12130142
-0.09533373 -0.14145455 -0.24567187 -0.1267613 -0.095088154 0.20280711 -0.005576394 0.11049859
-0.121554345 0.16453259 0.036265213 -0.2314789 -0.120698765 -0.22971079 0.11549485 -0.05851956
00000000: 7809 41be 72ba 3cbe ced5 54be ce5a 0abe
00000010: 7c58 48be 901d 6f3e 283b 16be 0e97 303e
00000020: 19e0 63be 1902 d9bd 87d1 bdbd 369f 223e
00000030: f0cb 213e 95e1 9dbe 5b7b 47be 6f72 e3bb
00000040: 8b15 5a3d 8030 edba 8675 8abd d1da 97bd
00000050: 2c2c 0bbe 67f6 88bc 5aa7 6ebe 9206 1dbe
00000060: b044 213d 7e54 cebd bd38 77bd a621 57bd
00000070: a7a6 a23d d07b 453e 8251 f2bd e16c f83d
00000080: 553e c3bd 76d9 10be 6891 7bbe b7cd 01be
00000090: 94bd c2bd abac 4f3e 2fba b6bb 164d e23d
000000a0: 7cf1 f8bd 3b7b 283e d58a 143d ce08 6dbe
000000b0: ea30 f7bd 4e39 6bbe 9088 ec3d 35b2 6fbd

transformer_blocks.1.attn.out.weight f4 [16, 16]
-0.042385157 -0.26588202 0.13857463 0.11103268 -0.011262635 -0.21969642 -0.11176101 0.08604913
-0.06326784 -0.22292453 -0.21873169 -0.0426289 -0.0032949431 0.21382825 -0.18431345 -0.16369893
0.1112485 0.090114586 0.08079655 0.23237322 0.079897225 -0.08791876 0.047817867 0.16466182
0.15898767 0.30444944 0.31567222 -0.1493968 -0.20661959 -0.061871313 0.22613686 0.052628223
-0.16798031 -0.2555778 -0.2801138 -0.23969392 -0.17652021 0.03627854 0.070628844 0.10919347
0.07120556 -0.16163778 -0.34240326 0.35390347 -0.18761832 -0.049670484 0.040413056 -0.2691957
-0.07863466 -0.23569106 -0.060863428 0.07743476 0.037375845 0.2699187 0.22520046 0.04718183
0.17466457 0.11143095 -0.06224873 -0.2013798 -0.20003238 -0.17737412 0.14456466 0.028913898
0.21492696 -0.23261745 -0.029348271 -0.12154921 -0.010689174 0.09679439 -0.13804734 -0.15859485
-0.03838175 -0.12024636 0.06099565 0.23549019 0.020605765 -0.054133758 0.027349025 -0.21306497
0.052491233 -0.07080081 -0.016836751 -0.068605915 -0.114491716 -0.19742201 0.08185249 0.13817255
-0.2711227 -0.033731394 -0.18004829 -0.0034652844 -0.06750455 -0.022781938 -0.056575537 0.22347096
-0.03253434 0.14850467 0.042836647 0.06011049 0.09672177 0.07201013 0.11803658 0.09549053
0.28381646 0.099925786 0.09774322 0.007349843 -0.1754486 -0.15909745 -0.08880498 0.207029
0.27307877 0.11818723 -0.28235084 -0.20435017 -0.3222853 -0.03960555 -0.024868844 0.06836857
-0.13303441 -0.3696793 -0.35498753 0.10059718 0.18099934 0.051214144 -0.2969214 -0.09090086
0.22763947 -0.26787594 -0.2272181 -0.37849367 -0.37822804 -0.13114965 0.08836554 0.0024409876
0.046434484 -0.024717031 -0.24072623 0.11037801 0.0888821 0.053010337 0.048560016 -0.12619969
0.10632512 -0.05192351 0.06140804 0.20234339 0.13042904 -0.024494924 0.12892811 -0.2593787
0.12986374 0.006398313 -0.1255377 -0.14944528 -0.21211061 -0.11837861 0.08585224 0.026836086
-0.049736813 0.098092884 0.16554573 0.044107206 -0.06779401 -0.073969275 0.03801552 -0.043053433
-0.26101494 -0.002019403 0.01964622 -0.017249813 -0.002029001 -0.14691603 -0.023391062 0.14237338
0.20785469 0.027775824 -0.04030736 0.24770574 0.043791983 0.16167186 0.03397496 0.23666327
-0.18408915 0.109324165 -0.4773036 0.025007265 0.003008543 0.11876998 -0.18235925 -0.16739677
-0.282663 -0.14459033 0.17167145 0.007306955 0.1733942 0.23609401 -0.04926786 0.21733059
-0.17554134 0.24670713 0.06894261 -0.050325416 -0.06623521 -0.2279973 -0.05171679 0.13532802
0.075035356 0.055259448 0.21103084 0.0044712764 -0.035769805 -0.013001138 -0.21562773 -0.09836546
-0.014646645 0.088678576 0.27101082 -0.03881478 -0.19118713 -0.23457241 -0.04699238 0.057331737
-0.209811 -0.07966479 0.26301882 -0.045340803 -0.08480956 0.1189472 0.1709486 0.04733364
-0.07042291 -0.12053248 0.10759579 0.096741244 0.12569976 -0.02862476 -0.051359627 -0.031419728
-0.024955248 0.14065774 0.19077633 0.11608677 -0.14984038 -0.15366197 -0.028834851 0.102306016
0.17902768 0.06367575 -0.033331472 0.08223862 -0.186497 -0.18698613 0.09917713 -0.051222675
00000000: 0f9c 2dbd b021 88be 82e6 0d3e 1a65 e33d
00000010: ea86 38bc 19f8 60be f5e2 e4bd 873a b03d
00000020: 9292 81bd 5446 64be 33fb 5fbe a49b 2ebd
00000030: f9ef 57bb cbf5 5a3e aabc 3cbe b1a0 27be
00000040: 41d6 e33d ff8d b83d a978 a53d 3ff3 6d3e
00000050: 28a1 a33d c00e b4bd abdc 433d 1c9d 283e
00000060: aacd 223e cce0 9b3e ca9f a13e 7afb 18be
00000070: 1694 53be c66c 7dbd 6c90 673e b190 573d
00000080: 0803 2cbe 18db 82be 136b 8fbe 5372 75be
00000090: b7c1 34be ce98 143d dba5 903d d3a0 df3d
000000a0: 38d4 913d 6084 25be 7b4f afbe d632 b53e
000000b0: 041f 40be 4773 4bbd 2988 253d 05d4 89be
000000c0: 350b a1bd ff58 71be ee4b 79bd 1e96 9e3d
000000d0: 6a17 193d c932 8a3e f39a 663e bc41 413d
000000e0: 45db 323e e935 e43d 86f8 7ebd 8236 4ebe
000000f0: 4ad5 4cbe 90a1 35be c208 143e d7dc ec3c
00000100: d015 5c3e 4533 6ebe c96b f0bc cbee f8bd
00000110: a521 2fbc 233c c63d 485c 0dbe b066 22be
00000120: 2f36 1dbd b943 f6bd 93d6 793d 5724 713e
00000130: 6ccd a83c 5cbb 5dbd 100b e03c b42d 5abe
00000140: 0c01 573d 0400 91bd 3aed 89bc 4281 8cbd
00000150: a27a eabd ff28 4abe 47a2 a73d 1b7d 0d3e
00000160: 98d0 8abe ee29 0abd 945e 38be d319 63bb
00000170: d33f 8abd 30a1 babc c0bb 67bd 92d5 643e
00000180: ba42 05bd 9c11 183e 7b75 2f3d 6b36 763d
00000190: 1016 c63d 0c7a 933d 2abd f13d 8a90 c33d
000001a0: 6450 913e e4a5 cc3d 992d c83d f4d6 f03b
000001b0: cca8 33be 71ea 22be 63df b5bd 69ff 533e
000001c0: fbd0 8b3e 250c f23d 4a90 90be 2c41 51be
000001d0: 9402 a5be 6e39 22bd bfb9 cbbc d204 8c3d
000001e0: 2c3a 08be 9b46 bdbe edc0 b5be e505 ce3d
000001f0: e457 393e ecc5 513d 1506 98be 3b2a babd
00000200: 521a 693e 0927 89be ddab 68be ecc9 c1be
00000210: 1ba7 c1be 184c 06be fef8 b43d faf8 1f3b
00000220: 1632 3e3d 5f7b cabc f080 76be de0d e23d
00000230: d207 b63d 5e21 593d dee6 463d 7e3a 01be
00000240: fcc0 d93d bfad 54bd ff86 7b3d 1b33 4f3e
00000250: 318f 053e 94a9 c8bc bb05 043e 49cd 84be
00000260: 00fb 043e f1a8 d13b f48c 00be 2f08 19be
00000270: 8633 59be 7c70 f2bd 4dd3 af3d 5ad7 db3c
00000280: d4b8 4bbd ece4 c83d d284 293e c2a9 343d
00000290: 96d7 8abd 347d 97bd 29b6 1b3d cc58 30bd
000002a0: c0a3 85be f657 04bb 1cf1 a03c 7b4f 8dbc
000002b0: fdf8 04bb 2871 16be 9d9e bfbc 54ca 113e
000002c0: dcd7 543e 208a e33c 5519 25bd 93a6 7d3e
000002d0: 395f 333d 4f8d 253e 5429 0b3d db57 723e
000002e0: de81 3cbe 59e5 df3d 2361 f4be 09dc cc3c
000002f0: fa2a 453b ad3d f33d 62bc 3abe 0f6a 2bbe
00000300: 34b9 90be 7d0f 14be a4ca 2f3e 2e6f ef3b
00000310: 408e 313e a1c2 713e 18cd 49bd e98b 5e3e
00000320: 1cc1 33be cba0 7c3e c831 8d3d 0622 4ebd
00000330: 53a6 87bd 2078 69be fcd4 53bd 6e93 0a3e
00000340: 23ac 993d bb57 623d 7818 583e c983 923b
00000350: 5c83 12bd ba02 55bc 84cd 5cbe d573 c9bd
00000360: 7bf8 6fbc 1d9d b53d eec1 8a3e 3ffc 1ebd
00000370: 8fc6 43be c033 70be 157b 40bd afd4 6a3d
00000380: b2d8 56be 4b27 a3bd 67aa 863e 47b7 39bd
00000390: a2b0 adbd 979a f33d 260d 2f3e ebe0 413d
000003a0: e339 90bd bcd9 f6bd 2e5b dc3d 4620 c63d
000003b0: 70b7 003e 797e eabc 795e 52bd f9b1 00bd
000003c0: f36e ccbc 9508 103e df5a 433e e7be ed3d
000003d0: c26f 19be 9059 1dbe 1137 ecbc d185 d13d
000003e0: 0853 373e 6e68 823d 9586 08bd b96c a83d
000003f0: 12f9 3ebe 4b79 3fbe 611d cb3d dece 51bd

transformer_blocks.1.attn.out.bias f4 [16]
0.141206 0.070764154 0.2013355 -0.04039516 -0.24617182 -0.050871227 0.09508327 -0.010966511
0.024052203 0.11409203 -0.27676973 0.076442316 -0.2636909 0.009700411 0.14696635 -0.03278775
00000000: 4e98 103e ccec 903d e52a 4e3e 6575 25bd
00000010: 7714 7cbe 595e 50bd 04bb c23d e2ac 33bc
00000020: 2009 c53c 15a9 e93d c3b4 8dbe ca8d 9c3d
00000030: 7e02 87be 79ee 1e3c 597e 163e 734c 06bd

transformer_blocks.1.norm1.weight f4 [16]
0.96766365 0.8162327 1.1267294 0.9982585 0.95818365 0.86371064 1.0187426 1.084651
0.985258 1.0189364 0.9944592 0.9250224 0.8037511 1.0844522 0.83784 0.74486077
00000000: ceb8 773f a0f4 503f ab38 903f de8d 7f3f
00000010: 864b 753f 241c 5d3f 2866 823f d8d5 8a3f
00000020: de39 7c3f 826c 823f e194 7e3f 45ce 6c3f
00000030: a2c2 4d3f 54cf 8a3f af7c 563f 32af 3e3f

transformer_blocks.1.norm1.bias f4 [16]
0.06644609 0.08311555 -0.01180644 0.009808606 -0.022909012 -0.17031945 -0.030007368 0.025133422
0.059374798 -0.07727589 -0.054397725 -0.15997364 -0.007366428 -0.017434578 0.10663737 0.14148384
00000000: e314 883d 7c38 aa3d cc6f 41bc 46b4 203c
00000010: aeab bbbc 3968 2ebe 03d2 f5bc 9be4 cd3c
00000020: fd32 733d d242 9ebd 26d0 5ebd 21d0 23be
00000030: 1462 f1bb f6d2 8ebc b264 da3d 24e1 103e
