examples/tmp/test_simpletransformer.model (torch, 840291 bytes, 39 tensors)

input_proj.weight f4 [16, 1]
0	0xbe12ca08	-0.14334881
1	0x3daad421	0.08341242
2	0x3f04fa6e	0.51944625
3	0xbf21f35f	-0.6326198
4	0xbf1d942b	-0.6155421
5	0x3f5ab9c5	0.8543971
6	0xbea4c6c1	-0.32182887
7	0xbc0af59c	-0.008481409
8	0x3f20645e	0.6265315
9	0xbf4b27cc	-0.793576
10	0x3e82824e	0.2549004
11	0x3ecafc8a	0.39645797
12	0xbeebe194	-0.4607054
13	0xbf14ce9c	-0.5812776
14	0xbf13b857	-0.57703155
15	0x3f794572	0.9737159

input_proj.bias f4 [16]
0	0x3edc140b	0.42984042
1	0xbdacd815	-0.08439652
2	0x3e6eaffe	0.23309323
3	0x3ef1b2a1	0.47206596
4	0x3f80f9cc	1.0076232
5	0x3ea20ec7	0.316519
6	0x3f4131d3	0.7546665
7	0xbef07792	-0.46966225
8	0x3f51f84e	0.8201951
9	0x3de2845a	0.110604
10	0x3df068a6	0.1173871
11	0x3ee035a3	0.43790922
12	0x3e6a7b41	0.2289858
13	0xbf56eb14	-0.8395245
14	0xbdee2272	-0.11627664
15	0x3f6a8ba0	0.916193

transformer_encoder.layers.0.self_attn.in_proj_weight f4 [48, 16]
0	0x3caf306b	0.021385392
1	0x3e4cc32f	0.19996332
2	0xbd5e39cd	-0.054254342
3	0x3e06e5ae	0.13173553
4	0x3e3e5fc5	0.1859122
5	0x3e9b0b37	0.30281994
6	0x3d892d55	0.066980995
7	0x3d8c7fe6	0.06860332
8	0x3dcb686e	0.09932028
9	0x3d885931	0.06657637
10	0x3e2747e9	0.16336025
11	0x3e4c9253	0.19977693
12	0x3e063c22	0.13108876
13	0x3e239609	0.15975203
14	0x3dcdc19c	0.10046694
15	0x3e20fbcb	0.15721051
16	0x3d745033	0.059646796
17	0xbe2769ed	-0.16349001
18	0x3ec6009b	0.38672337
19	0x3e94b6c4	0.2904569
20	0x3ef90153	0.48633823
21	0x3e1bc8a6	0.1521326
22	0x3e455314	0.19269973
23	0x3e258b33	0.16166382
24	0x3ef7141a	0.48257524
25	0x3db8ff12	0.09033026
26	0x3cd042c3	0.02542246
27	0x3ef85c37	0.48507854
28	0x3cf3992f	0.02973613
29	0xbe068cfe	-0.13139722
30	0x3d19420e	0.03741651
31	0x3d8ffe8a	0.07030971
32	0xbe4300ae	-0.19043228
33	0xbe930def	-0.28721568
34	0x3d183daf	0.0371682
35	0x3d5aee7b	0.05345009
36	0xbd93cde2	-0.072170034
37	0x3b028b64	0.001991951
38	0x3e113d9d	0.1418366
39	0x3dfa949b	0.122353755
40	0x3de2d1bd	0.11075161
41	0xbbd1fa05	-0.0064079785
42	0x3d0fef32	0.035140224
43	0x3d8bc16b	0.06824001
44	0xbceb73cf	-0.028741745
45	0xbe5e33d3	-0.21699457
46	0xbda9dcd9	-0.082940765
47	0x3eaf94a8	0.34293103
48	0xbe823d41	-0.25437358
49	0xbd3aaaa4	-0.04557289
50	0x3d8517d8	0.064986885
51	0x3e884e3b	0.26622185
52	0x3e34d76e	0.17660305
53	0x3e942c6c	0.2894014
54	0x3d5d4b72	0.05402703
55	0x3e5a682b	0.213288
56	0xbd21dc24	-0.039516583
57	0xbe2d78dc	-0.16940635
58	0xbd318914	-0.04334362
59	0xbcae81d2	-0.021302138
60	0xbd880a91	-0.066426404
61	0x3ea5e223	0.3239909
62	0xbdf7e3e4	-0.121040136
63	0x3b4d8dc5	0.0031365019
64	0x3edb9c4f	0.42892691
65	0xbe9b0d58	-0.30283618
66	0x3e672aab	0.2257487
67	0xbd8d4c72	-0.068993464
68	0x3f15f83a	0.5858189
69	0xbe96834c	-0.29397047
70	0x3e24e7af	0.16104005
71	0x3f003d66	0.50093687
72	0x3f2a15f2	0.66439736
73	0x3dcc3dbe	0.09972714
74	0x3ecbced1	0.39806226
75	0x3f2a216c	0.6645725
76	0x3e893dbc	0.26804912
77	0x3e08882c	0.13333195
78	0xbe667a6d	-0.22507639
79	0x3f639ddd	0.88912755
80	0x3cf11a99	0.029431628
81	0x3eccba6f	0.39985988
82	0x3d12589a	0.03572903
83	0x3e97e281	0.29664996
84	0x3de9251b	0.113840304
85	0x3ed323bd	0.41238204
86	0x3e194f65	0.14971693
87	0x3d81bbf3	0.063346766
88	0x3e6b0796	0.22952113
89	0x3e0a5299	0.13508071
90	0xbe8c688f	-0.27423522
91	0xbce266d3	-0.027636921
92	0x3dbaf89a	0.09129448
93	0xbe6416b8	-0.22274292
94	0x3e0c5624	0.13704735
95	0x3ddb6100	0.10711861
96	0xbe5d0411	-0.21583582
97	0x3d8c0ff2	0.06838979
98	0xbdac5ef8	-0.08416551
99	0xbe35f5d1	-0.17769553
100	0xbe33d046	-0.17559919
101	0xbda4af9e	-0.08041309
102	0xbdc09313	-0.09403052
103	0xbe6acb6c	-0.22929162
104	0x3e8c8a23	0.2744914
105	0x3e8b6b63	0.27230367
106	0xbe19edcd	-0.1503212
107	0xbe3b83cd	-0.18311997
108	0x3d7fa791	0.062415663
109	0x3e93154d	0.2872719
110	0xbd8b0801	-0.06788636
111	0x3e969f15	0.29418245
112	0x3f1eba9f	0.6200351
113	0xbd2f4ce1	-0.042797927
114	0x3e614e41	0.22002508
115	0x3eef732e	0.46767563
116	0x3e448a4e	0.19193384
117	0x3dd2cd8f	0.102931134
118	0x3ec8b972	0.39203984
119	0x3ebca535	0.36844793
120	0x3ef6e78a	0.48223525
121	0x3ee998e1	0.4562445
122	0x3e805412	0.2506414
123	0x3eee3e3e	0.46531862
124	0x3ecba21c	0.39772117
125	0x3db60b97	0.08888929
126	0x3e9e5dc2	0.30930907
127	0x3f166cbd	0.5875967
128	0x3f8d96ff	1.1061705
129	0xbe8231de	-0.2542867
130	0x3e51460f	0.20436881
131	0xbd808285	-0.062748946
132	0xbd9c31e5	-0.07626704
133	0x3d454133	0.048157882
134	0x3e6303e7	0.22169457
135	0x3d0b49ee	0.03400605
136	0x3eb240f4	0.3481518
137	0x3d8a4221	0.06750894
138	0x3e2cbf40	0.16869831
139	0x3c6a4c10	0.014300361
140	0xbc1eedd1	-0.009700255
141	0x3e446766	0.19180068
142	0xbdf9d443	-0.12198689
143	0x3ec570bf	0.3856258
144	0xbf087b78	-0.533134
145	0xbe4e0130	-0.2011764
146	0xbc37378e	-0.011182679
147	0xbe662efc	-0.2247886
148	0x3e8156c4	0.2526151
149	0xbd62f17e	-0.055406086
150	0x3e5c82c5	0.2153426
151	0x3dc4ee16	0.09615724
152	0xbe090c58	-0.13383615
153	0x3d70495e	0.05866372
154	0x3dcee9a5	0.10103158
155	0xbbc2daee	-0.0059465086
156	0xbdf3377d	-0.11875818
157	0xbe9dccc9	-0.308203
158	0xbe7110fc	-0.23541635
159	0x3e5e27b7	0.21694838
160	0xbee57417	-0.44815132
161	0x3ec10a09	0.3770297
162	0xbf1eb43a	-0.61993754
163	0x3f072cf1	0.5280295
164	0xbf0771ef	-0.52908224
165	0x3da11ce0	0.078668356
166	0xbf1dd202	-0.6164857
167	0x3d1add44	0.03780867
168	0xbe9acc93	-0.30234203
169	0xbe887675	-0.26652876
170	0xbef4da85	-0.47822967
171	0xbe876b28	-0.2644894
172	0x3dfa1a7f	0.12212085
173	0x3dbe0d04	0.09279826
174	0x3ce18114	0.02752737
175	0xbeb1be11	-0.34715322
176	0x3ee73303	0.45156106
177	0xbf01cdf3	-0.5070488
178	0x3eb63a38	0.35591292
179	0xbeefd97d	-0.46845618
180	0x3eec1592	0.46110207
181	0xbdfc5e9f	-0.12322735
182	0x3ecb18db	0.396674
183	0x3d71d531	0.059041206
184	0x3e93fbe2	0.2890311
185	0x3db1cef6	0.08682053
186	0x3f069e45	0.5258525
187	0x3f3caa02	0.7369691
188	0x3ea70780	0.3262291
189	0xbe759fc8	-0.23986733
190	0xbea7e14b	-0.32789072
191	0x3f213478	0.62970686
192	0xbeac09dd	-0.33601275
193	0x3e429859	0.19003429
194	0x3c80d81e	0.015728053
195	0xbd1e8a16	-0.038705908
196	0xbe46efb9	-0.19427384
197	0x3e68bec8	0.22729027
198	0x3d9e9a30	0.07744253
199	0xbecf7e98	-0.4052627
200	0xbeb7ca98	-0.35896754
201	0xbd873850	-0.06602538
202	0xbea6dad5	-0.3258883
203	0x3e34e34e	0.17664835
204	0x3e3a61bf	0.1820135
205	0x3e063e1a	0.13109627
206	0x3e9be471	0.30447724
207	0xbe7223e8	-0.2364651
208	0xbf44af26	-0.76829755
209	0x3ee43bcb	0.44576868
210	0xbf134c76	-0.57538545
211	0x3e707b54	0.23484546
212	0xbe843cbd	-0.2582759
213	0x3d147a6a	0.036249556
214	0xbeb0faef	-0.34566447
215	0xbeed178c	-0.46307027
216	0xbedc6de7	-0.430526
217	0xbeb8b065	-0.36072078
218	0xbe5b1c50	-0.21397519
219	0xbf0d0d69	-0.5509859
220	0xbdbc50b7	-0.09195083
221	0xbe49647c	-0.19667238
222	0xbe188512	-0.14894512
223	0xbefdfa25	-0.49604908
224	0xbf3686ba	-0.71299326
225	0xbe3950d9	-0.18097247
226	0x3d061359	0.032733295
227	0x3cdc754b	0.026911398
228	0x3d0a67ca	0.033790387
229	0x3c887461	0.016657056
230	0xbd6d4f3d	-0.057936896
231	0x3d26e917	0.040749636
232	0xbe667440	-0.22505283
233	0x3dec5ba7	0.11540919
234	0xbda901c1	-0.08252288
235	0x3bfcc995	0.00771446
236	0xbe156876	-0.1459063
237	0xbd54285c	-0.051796302
238	0x3ddf444d	0.10901699
239	0x3dea443b	0.11438795
240	0xbea9a284	-0.33131802
241	0x3b560d6e	0.0032661813
242	0xbd6f9b71	-0.05849785
243	0x3e195b00	0.1497612
244	0xbcff7623	-0.031184262
245	0x3c89fd0f	0.0168443
246	0xbce9fd73	-0.028563237
247	0xbeb3151f	-0.34977052
248	0xbeb2218f	-0.34791228
249	0x3d74e1d2	0.05978567
250	0x3e8bd49f	0.27310655
251	0xbe87672b	-0.26445898
252	0xbe6b81f5	-0.22998793
253	0xbe7b18d2	-0.24521187
254	0x3e24733d	0.16059585
255	0xbea9a4a7	-0.33133432

transformer_encoder.layers.0.self_attn.in_proj_bias f4 [48]
0	0x3da7479a	0.08167954
1	0x3e87e086	0.26538485
2	0x3df8237b	0.12116142
3	0x3da0fc95	0.07860676
4	0x3f030f20	0.51194954
5	0xbc016d8f	-0.007899656
6	0x3d52875e	0.051398627
7	0x3ecdce8b	0.40196642
8	0x3e3a771d	0.182095
9	0xba262381	-0.0006337688
10	0xbea8b8e6	-0.32953566
11	0x3eaf1283	0.3419381
12	0xbdb36945	-0.08760313
13	0xbea82e63	-0.3284789
14	0xbd3124a9	-0.043247852
15	0xbe1ab861	-0.15109397
16	0xba8f14b2	-0.0010916202
17	0xbb1e8fef	-0.0024194678
18	0xbb512c6f	-0.0031917354
19	0xba55d31a	-0.0008156762
20	0xbaeca007	-0.0018053063
21	0xbaafc889	-0.0013411205
22	0xba84512f	-0.0010094995
23	0xbb8b8841	-0.004258186
24	0x39df90d4	0.0004264178
25	0x3b19de1d	0.0023478337
26	0xbb4755eb	-0.0030416201
27	0x3be9c282	0.007133783
28	0xba7aa90d	-0.00095619337
29	0xbc229f53	-0.009925681
30	0x39fb5d44	0.0004794394
31	0xbb7884f2	-0.0037921038
32	0x3ce7d9eb	0.028302154
33	0xbd3bc463	-0.045841586
34	0x3ad554ec	0.0016275919
35	0xbdafb70d	-0.08579836
36	0xbacc4199	-0.0015583514
37	0x3cb6176a	0.022227962
38	0xbc19b604	-0.009381775
39	0x3bfb3cd6	0.0076671643
40	0x3ddb08d8	0.10695046
41	0x3bc93c56	0.006141226
42	0x3d2d216a	0.042268194
43	0x3b09c168	0.002101982
44	0xbd020c90	-0.03175026
45	0xbd7ceeaa	-0.061751045
46	0x3cf7a7a5	0.030231306
47	0xbb8d7a50	-0.0043175593

transformer_encoder.layers.0.self_attn.out_proj.weight f4 [16, 16]
0	0xbdb4d026	-0.08828764
1	0xbaf10735	-0.0018388989
2	0x3c96f329	0.018426495
3	0xbe004e6b	-0.12529914
4	0xbcff9515	-0.031199018
5	0x3e2c461c	0.1682362
6	0x3d8f849f	0.07007717
7	0xbe821c4f	-0.25412223
8	0xbd908534	-0.070566565
9	0x3e2fdf6d	0.17175074
10	0x3df19c9c	0.11797449
11	0x3dde7fea	0.108642414
12	0x3bc6bef4	0.006065244
13	0x3d3e58d5	0.046471436
14	0xbd8158c0	-0.06315756
15	0xbe43123c	-0.19049925
16	0xbdb17c2f	-0.08666264
17	0x3e0418f1	0.1290014
18	0x3dd353c9	0.10318715
19	0xbd8f41f6	-0.06995003
20	0x3e670b49	0.22562899
21	0xbd5fc795	-0.054633696
22	0x3d02053b	0.03174327
23	0x3e67d98d	0.22641583
24	0x3d21e261	0.039522532
25	0xbdb3f866	-0.087876126
26	0xbe5e0fdd	-0.21685739
27	0xbe00ffc3	-0.12597565
28	0x3e19e9cb	0.15030591
29	0xbe0a75a5	-0.1352144
30	0x3de20837	0.11036723
31	0x3e75c3bc	0.24000448
32	0x3e5592d0	0.20856786
33	0x3df8efd9	0.12155122
34	0xbe16857e	-0.1469936
35	0xbdcf7509	-0.101297446
36	0x3dd08276	0.101811334
37	0x3e38e363	0.18055491
38	0x3d1ecf2d	0.038771797
39	0xbe4bebbf	-0.19914149
40	0x3d984ea2	0.07436873
41	0xbd38429f	-0.04498541
42	0x3d9da63a	0.07697721
43	0x3d66e71d	0.05637275
44	0x3e1a73f1	0.1508329
45	0xbd0dada5	-0.03458943
46	0xbc9f629f	-0.019456206
47	0x3dda0ca3	0.106469415
48	0x3d01d28e	0.03169494
49	0xbcce5917	-0.025188966
50	0x3e6b23cb	0.22962873
51	0x3d117c4b	0.035518926
52	0x3d6c7d6b	0.057736795
53	0xbcd4b756	-0.025966328
54	0xbdb38c2a	-0.087669685
55	0xbdbc47ce	-0.09193383
56	0xbdc9913c	-0.098421544
57	0x3ea0a87a	0.31378537
58	0x3d8d2a58	0.06892842
59	0x3dc65058	0.09683293
60	0x3d6cd5fa	0.05782125
61	0xbdf7da4d	-0.121021844
62	0xbdbca7d2	-0.09211697
63	0xbd53d40e	-0.051715903
64	0x3d6fe1b7	0.058564868
65	0xbd6d37ca	-0.057914533
66	0xbd2e38fd	-0.042534817
67	0x3d8b0266	0.06787567
68	0x3e2942ce	0.1652939
69	0xbe1d7410	-0.15376306
70	0x3d9168fd	0.07100103
71	0xbdb9f6cb	-0.09080275
72	0x3d9968dc	0.074907035
73	0xbc8e280c	-0.01735308
74	0x3b0d3b50	0.0021550246
75	0x3d2651c6	0.04060533
76	0xbe33329e	-0.17499778
77	0x3cdd3f1b	0.02700763
78	0xbe3bf387	-0.18354617
79	0xbe3c190c	-0.1836893
80	0x3e027447	0.12739669
81	0x3d0264b7	0.03183433
82	0x3d0e0f76	0.034682713
83	0x3d14f65e	0.036367767
84	0xbd243cef	-0.040097173
85	0x3e6955bb	0.2278661
86	0x3d4c8aef	0.049937185
87	0xbd48cb31	-0.049021903
88	0xbc387f52	-0.011260824
89	0xbce98eb0	-0.028510422
90	0x3e0f96a0	0.14022303
91	0x3d92d43c	0.07169387
92	0x3dbfee86	0.093716666
93	0x3cc69ebd	0.024245614
94	0xbd3a8be6	-0.045543574
95	0x3e75954a	0.2398273
96	0xbd3d0ffc	-0.046157822
97	0x3dc07301	0.09396935
98	0x3ccb3e4a	0.024809975
99	0xbd8b92d8	-0.068151176
100	0xbd17add9	-0.03703103
101	0xbda55d4a	-0.08074434
102	0xbc9cbb2f	-0.019132225
103	0xbe061437	-0.13093649
104	0xbd44b69e	-0.04802572
105	0x3dc0827e	0.093998894
106	0x3e4831b3	0.19550209
107	0xbe85f4c0	-0.26163292
108	0x3e609d89	0.21935095
109	0xbdd45899	-0.10368461
110	0xbe346e90	-0.17620301
111	0xbd235280	-0.0398736
112	0xbd7ce47c	-0.061741337
113	0x3e2df582	0.16988185
114	0x3e6d96c1	0.2320204
115	0x3e317eb7	0.17333494
116	0xbeb3cc37	-0.3511674
117	0x3e1f4306	0.15552911
118	0xbda8cd46	-0.08242278
119	0xbd807d49	-0.06273896
120	0x3e10f3e0	0.14155531
121	0x3e69d929	0.22836746
122	0x3bee1484	0.0072656292
123	0xbe0ccdf0	-0.13750434
124	0x3df91adc	0.12163326
125	0xbd910f2e	-0.070829734
126	0xbda4f308	-0.08054167
127	0x3e37bed8	0.17943895
128	0x3de3bbf6	0.11119835
129	0xbcf28065	-0.029602239
130	0xbe78f0d0	-0.24310613
131	0x3e092965	0.13394697
132	0xbdbbd5e6	-0.09171657
133	0x3df8c669	0.12147219
134	0x3dbe302b	0.09286531
135	0xbdbbc196	-0.09167783
136	0xbd908883	-0.070572875
137	0xbe68b719	-0.22726096
138	0xbde0893c	-0.109636754
139	0x3d457d29	0.048215065
140	0x3d14d44d	0.03633528
141	0xbe0352dd	-0.12824579
142	0xbdd9523b	-0.10611387
143	0x3d973d7e	0.073847756
144	0xbca1d90f	-0.019756822
145	0x3e1aa736	0.15102848
146	0xbbea81e4	-0.0071565975
147	0x3e25f5a1	0.16206981
148	0xbe02efb8	-0.12786758
149	0x3dd94308	0.10608488
150	0x3d21671b	0.03940497
151	0xbe8d711b	-0.27625355
152	0xbcea1559	-0.028574632
153	0x3e1c16ab	0.15243022
154	0xbd42f1d8	-0.04759392
155	0xbe004374	-0.12525731
156	0x3d2c4f39	0.04206774
157	0x3b5e2e66	0.0033902167
158	0xbd3cd910	-0.046105444
159	0x3d8876d1	0.066632874
160	0xbdaf7ff6	-0.085693285
161	0xbdf09135	-0.11746446
162	0x3e113489	0.14180197
163	0x3d998b0c	0.07497224
164	0x3e0f9b7f	0.14024161
165	0xbcd44dc8	-0.025915995
166	0xbd049987	-0.032372978
167	0x3e9c64ce	0.30545658
168	0x3e017805	0.1264344
169	0x3e3b4716	0.18288836
170	0xbdf90ff4	-0.12161246
171	0x3e699838	0.22811973
172	0x3e341636	0.17586598
173	0xbdb99ea8	-0.090634644
174	0x3e120fd0	0.14263844
175	0xbe0eed2f	-0.13957666
176	0xbe0d2d0d	-0.13786717
177	0x3d97df79	0.07415671
178	0xbd30a47d	-0.04312562
179	0xbe127312	-0.14301708
180	0x3cf7d719	0.030253934
181	0x3d815832	0.0631565
182	0xbd2bbd91	-0.04192883
183	0xbe11b762	-0.14230111
184	0xbd860ddc	-0.06545612
185	0xbe2085c7	-0.15676032
186	0x3df377e7	0.11888104
187	0xbd8efabe	-0.06981419
188	0xbe4a455a	-0.19753018
189	0x3d316e1b	0.043317895
190	0x3dfcb369	0.12338907
191	0xbc802506	-0.015642654
192	0x3e89dc69	0.26925972
193	0x3e128c80	0.14311409
194	0xbdeee7cb	-0.11665305
195	0xbd0e8e8c	-0.034803912
196	0xbc2d0816	-0.01056101
197	0xbca91ee8	-0.02064462
198	0x3dfafd31	0.12255324
199	0x3e672a6d	0.22574778
200	0xbbf9e92e	-0.007626674
201	0xbdc66d90	-0.09688866
202	0x3e2d4fab	0.16924922
203	0x3d87150a	0.0659581
204	0xbd2e7dcf	-0.04260045
205	0xbcef8aa5	-0.029240916
206	0x3dd71ca3	0.10503509
207	0x3e040436	0.12892231
208	0x3c0788e2	0.0082723815
209	0xbd91ea28	-0.0712474
210	0x3cc48102	0.023987297
211	0xbd7fdf55	-0.062468845
212	0x3d1cf959	0.038323734
213	0x3e7f851c	0.24953121
214	0x3d3dabbe	0.046306364
215	0xbdc64b69	-0.09682352
216	0xbe07c666	-0.13259277
217	0x3df152aa	0.11783345
218	0xbd9a8995	-0.07545773
219	0x3dc6c676	0.09705822
220	0xbd97b6c3	-0.07407906
221	0x3e3a62b8	0.1820172
222	0xbe5d976e	-0.21639797
223	0x3e4c9a0b	0.19980638
224	0xbe086292	-0.13318852
225	0x3d076bc2	0.03306175
226	0x3da6cac2	0.08144142
227	0x3e2d419f	0.16919564
228	0x3d060a8b	0.0327249
229	0xbe17ef92	-0.14837483
230	0x3dca69d9	0.0988347
231	0xbe19eda7	-0.15032063
232	0x3dd895ad	0.105754234
233	0x3d739020	0.05946362
234	0xbd95f088	-0.07321268
235	0xbea15dc1	-0.3151684
236	0xbca327ec	-0.019916497
237	0xbe04ebce	-0.12980577
238	0xbdb2674b	-0.08711108
239	0x3c1ba9b3	0.009500909
240	0xbe706b6e	-0.23478481
241	0x3d542949	0.051797185
242	0xbe6772f2	-0.22602442
243	0x3e1a0a27	0.15042935
244	0xbd3f067e	-0.04663705
245	0x3e3353e8	0.17512476
246	0xbd430655	-0.04761346
247	0x3e01dcd3	0.12681894
248	0xbc644980	-0.013933539
249	0xbdb392ff	-0.08768272
250	0xbcc44056	-0.023956459
251	0x3e12fb5d	0.143537
252	0x3e220f5a	0.15826169
253	0xbdf1750f	-0.11789905
254	0xbdb62ce7	-0.08895283
255	0xbe782492	-0.242327

transformer_encoder.layers.0.self_attn.out_proj.bias f4 [16]
0	0xbc6f73d8	-0.014615022
1	0x3c5f8d58	0.013644539
2	0xbcf96a62	-0.030446235
3	0xbc27d3fd	-0.010243413
4	0x3d513162	0.051072486
5	0x3c49fb57	0.0123279905
6	0x3c4e0506	0.01257444
7	0xbbdbd745	-0.0067090117
8	0xbd312a9e	-0.043253534
9	0xbdabf7cc	-0.08396873
10	0xbc00e6f9	-0.007867568
11	0xbc21bca0	-0.009871632
12	0x3cc8397e	0.024441477
13	0x3c8ffcec	0.017576657
14	0x39f34f15	0.00046407492
15	0x3ce3df20	0.027816355

transformer_encoder.layers.0.linear1.weight f4 [2048, 16]
0	0x3e13ac58	0.14421213
1	0x3da6c60c	0.08143243
2	0xbd2a5edb	-0.041594367
3	0xbd9032d1	-0.070409425
4	0x3d56d3ea	0.05244819
5	0xbe16c3fa	-0.14723197
6	0xbdb5112b	-0.08841165
7	0x3dc36aa3	0.09541824
8	0xbdcce553	-0.100046776
9	0xbdfe067c	-0.124035805
10	0xbda5f6e0	-0.08103728
11	0xbde80f51	-0.113310464
12	0xbd272f8f	-0.04081684
13	0x3db5cbc9	0.088767596
14	0xbe110512	-0.1416209
15	0x3db6eb9a	0.08931656
16	0xbdd3a7db	-0.1033475
17	0xbe84c123	-0.25928602
18	0x3e4950b2	0.19659689
19	0x3dd1cb49	0.10243852
20	0x3e17b30b	0.14814393
21	0x3e35dcdb	0.17760031
22	0xbc4f1873	-0.0126401065
23	0xbe1b8088	-0.1518575
24	0x3e3c2185	0.18372162
25	0xbd90e652	-0.0707518
26	0xbe8216be	-0.25407976
27	0xbcbcb8cd	-0.023037339
28	0xbe46f8d1	-0.19430853
29	0x3e1a80b9	0.15088166
30	0xbd6e85fe	-0.058233254
31	0xbe5f3bbe	-0.21800134
32	0x3cbdbb95	0.023160735
33	0xbdb21d77	-0.08697026
34	0xbe140dce	-0.14458391
35	0x3d96dd47	0.07366424
36	0xbe3f8a54	-0.18705112
37	0xbdf076ee	-0.11741434
38	0x3c84955a	0.016184498
39	0x3a007a7c	0.0004901064
40	0xbe34bdce	-0.1765053
41	0xbe2a7cc6	-0.1664916
42	0xbccaa9e6	-0.024739217
43	0xbd8f5ed9	-0.07000513
44	0xbd10c37c	-0.03534268
45	0x3e2c0229	0.16797699
46	0xbe1324fd	-0.14369579
47	0x3d5e62a6	0.054293297
48	0xbd774a6a	-0.0603737
49	0xbda4a2d2	-0.08038868
50	0xbd991c96	-0.074761555
51	0xbd6450e9	-0.055741224
52	0x3dcc3908	0.09971815
53	0x3e704dfe	0.23467252
54	0x3da2ae01	0.07943345
55	0xbdc032b0	-0.09384668
56	0xbdfafe2a	-0.12255509
57	0x3d91223e	0.07086609
58	0xbd88f4ee	-0.06687342
59	0xbe1afdb0	-0.15135837
60	0x3dd7d71e	0.10539077
61	0xbc814331	-0.01577911
62	0xbca91b52	-0.02064291
63	0x3d918fc7	0.071075015
64	0x3b2b26c0	0.0026115626
65	0x3d3d1713	0.046164583
66	0xbb6e5641	-0.003636733
67	0xbdc6b2bd	-0.0970206
68	0x3e2cdd0d	0.16881199
69	0x3e1bfd49	0.1523334
70	0x3de59337	0.1120972
71	0xbd88dcd1	-0.066827424
72	0xbe856aba	-0.26057988
73	0xbb359513	-0.0027707263
74	0x3da0dbe6	0.07854442
75	0xbe56f326	-0.20991191
76	0xbd8073ef	-0.062721126
77	0x3e766da5	0.24065264
78	0xbe35c954	-0.17752582
79	0x3d92e59d	0.071727015
80	0xbc364fc6	-0.011127418
81	0x3def9810	0.116989255
82	0xbe131dde	-0.14366862
83	0x3ee05d88	0.4382136
84	0x3c0d0970	0.008608207
85	0x3bc2d4bb	0.0059457696
86	0x3d5ae180	0.05343771
87	0x3e9491f1	0.29017594
88	0xbe171bd2	-0.14756706
89	0xbd80b282	-0.06284048
90	0x3d6540cc	0.05597
91	0xbe439a4a	-0.19101825
92	0x3e915675	0.28386274
93	0x3e902854	0.28155768
94	0x3da5172f	0.080610625
95	0xbe9deac0	-0.30843163
96	0x3da8c755	0.082411446
97	0x3dbe6d81	0.0929823
98	0xbe6244a2	-0.22096494
99	0x3ce24415	0.027620355
100	0xbca5e46a	-0.020250518
101	0xbe0fa4f7	-0.14027773
102	0xbe2239c7	-0.15842353
103	0x3e415b2e	0.18882439
104	0x3dc85177	0.09781163
105	0xbc7b38d9	-0.015333378
106	0x3dd63b6e	0.10460554
107	0x3cfa1c16	0.03053097
108	0xbda0aa4a	-0.0784498
109	0x3db32e44	0.08749059
110	0x3d4bc855	0.0497516
111	0x3df8f7a3	0.12156608
112	0x3c9cd3c5	0.019143948
113	0xbcc2382f	-0.023708431
114	0x3d62ad74	0.0553412
115	0xbd6939cc	-0.056939885
116	0x3de279f0	0.11058414
117	0xbe0800b7	-0.13281523
118	0xbd3d8a08	-0.046274215
119	0x3e2c60ad	0.16833754
120	0xbd8448ce	-0.06459199
121	0xbe5ecb26	-0.21757182
122	0x3e63fccb	0.22264402
123	0x3decec4b	0.11568507
124	0xbc2064c5	-0.00978965
125	0x3dfe6384	0.12421325
126	0x3d8425de	0.06452535
127	0xbd697470	-0.05699581
128	0x3cec1fbf	0.028823731
129	0xbd2a00b2	-0.04150457
130	0xbd19b02e	-0.037521534
131	0x3e2e070c	0.16994876
132	0xbddec847	-0.108780436
133	0xbd4a0c5d	-0.049328197
134	0x3e4b6402	0.19862369
135	0xbcd34c15	-0.025793115
136	0x3c60326e	0.013683898
137	0xbe3a98e1	-0.18222381
138	0x3ca2c909	0.019871252
139	0xbccc67e6	-0.024951886
140	0x3dd77a2a	0.10521348
141	0xbda8be67	-0.08239441
142	0x3e16cd5e	0.14726779
143	0x3db7a02e	0.08966099
144	0x3bc7259f	0.006077483
145	0xbe0ba0a0	-0.13635492
146	0x3dd59e4f	0.104305856
147	0x3c318639	0.010835224
148	0xbd76efd6	-0.06028732
149	0xbd8e3224	-0.06943157
150	0x3e0a82a1	0.13526393
151	0x3e1f6d9b	0.15569155
152	0xbe8b4fd4	-0.27209342
153	0xbe441cb1	-0.1915157
154	0x3e737ad7	0.23777328
155	0x39867687	0.0002564678
156	0x3e456b05	0.19279106
157	0x3dc697f0	0.096969485
158	0xbda124bd	-0.078683354
159	0xba5acba9	-0.0008346388
160	0x3c974117	0.018463654
161	0xbd720ce8	-0.05909434
162	0x3a0bb1d6	0.0005328929
163	0x3e599a83	0.21250348
164	0xbe5c559c	-0.21517032
165	0xbdfe5ed2	-0.12420429
166	0x3d95d543	0.07316067
167	0x3da793ce	0.081824884
168	0x3e76a1d3	0.24085169
169	0xbd5ee3fc	-0.05441664
170	0xbd1305ab	-0.035894077
171	0xbd2dc726	-0.04242625
172	0x3a806ed7	0.0009798658
173	0xbc2a6606	-0.010400301
174	0x3d35da7b	0.044397812
175	0xbc5bc9ed	-0.013414842
176	0xbdc79906	-0.09745984
177	0xbd04a3fa	-0.032382943
178	0x3e52f64b	0.20601766
179	0xbe687679	-0.22701444
180	0x3e4c9c9d	0.19981618
181	0x3e1730ac	0.1476466
182	0xbe3b5f15	-0.1829799
183	0x3dec6855	0.11543337
184	0x3d934da9	0.07192547
185	0x3e55842f	0.20851205
186	0xbe337670	-0.17525649
187	0xbe0a2ecd	-0.13494416
188	0xbd6535d6	-0.055959545
189	0x3d68ab64	0.056804076
190	0xbe391354	-0.1807378
191	0xbe37311f	-0.17889832
192	0xbe244ed7	-0.160457
193	0x3d9d95d7	0.07694595
194	0x3cdd2c8a	0.026998777
195	0x3d51ede9	0.05125228
196	0xbcd48c7c	-0.025945894
197	0xbd5617c6	-0.052268766
198	0x3dec2cbb	0.11531969
199	0x3dac76b6	0.0842108
200	0xbe4e6901	-0.20157243
201	0xbcadcfda	-0.021217275
202	0xbd501d1f	-0.050809022
203	0xbd5b964a	-0.053610124
204	0x3e2535cb	0.16133802
205	0xbe342dcf	-0.175956
206	0x3d9e9c7c	0.07744691
207	0xbe6cc1f2	-0.2312086
208	0xbcc519e4	-0.024060197
209	0x3ca987b4	0.020694591
210	0x3d85801c	0.065185755
211	0x380acd66	3.3093056e-05
212	0xbc760426	-0.0150156375
213	0xbe13ec2b	-0.1444556
214	0xbe5ad7e2	-0.21371415
215	0x3e3b7ac4	0.1830855
216	0x3d37cccc	0.044873044
217	0x3e148070	0.1450212
218	0x3de4ad06	0.11165814
219	0x3dcb7059	0.09933538
220	0xbe02d5cb	-0.12776868
221	0x3daf9ed6	0.085752174
222	0xbd9e589b	-0.07731744
223	0xbbe2a521	-0.0069166576
224	0x3dd609c6	0.10451083
225	0x3e4192e5	0.18903692
226	0x3d841a1f	0.06450295
227	0xbe4d7ab4	-0.20066339
228	0xbd387768	-0.04503575
229	0x3e224aad	0.15848799
230	0x3e3d83ba	0.18507281
231	0x3e19b935	0.15012057
232	0x3e11b48d	0.14229031
233	0x3e5dde6d	0.2166688
234	0xbe3b30d1	-0.1828034
235	0x3e2784d9	0.16359271
236	0xbd90df65	-0.07073859
237	0x3e7f082a	0.24905458
238	0xbe4e3ade	-0.20139644
239	0xbe70585b	-0.23471205
240	0x3d4597a2	0.04824031
241	0x3c34ca7c	0.011034604
242	0xbcb005b6	-0.021487098
243	0x3e24cf10	0.16094613
244	0x3da79086	0.081818625
245	0xbe1b6a97	-0.1517738
246	0xbe096c05	-0.13420112
247	0x3e7599f8	0.23984516
248	0x3e0575b2	0.13033178
249	0xbe21dd04	-0.15806967
250	0x3c89e6fa	0.016833771
251	0x3e169b7c	0.1470775
252	0x3db5389f	0.0884869
253	0x3e3e7cab	0.18602245
254	0x3d60caf6	0.05488106
255	0x3df3d5af	0.11905991

transformer_encoder.layers.0.linear1.bias f4 [2048]
0	0xbccd8103	-0.025085932
1	0x3d1b2473	0.037876558
2	0x3dcf076f	0.1010884
3	0xbd898c46	-0.06716208
4	0x3ce7cad0	0.02829495
5	0xbe85978b	-0.2609218
6	0x3d401da1	0.046903256
7	0x3d4fefd0	0.050765812
8	0x3d61575f	0.055014964
9	0x3dcd1397	0.10013502
10	0x3db4b63d	0.08823822
11	0x3b53b51e	0.0032304
12	0x3d33e1ab	0.043916386
13	0xbddcd152	-0.10782112
14	0xbd4cf538	-0.050038546
15	0xbcc3e115	-0.023911038
16	0x3e7b0a72	0.24515703
17	0x3db3f294	0.087865025
18	0x3e4df249	0.20111956
19	0xbe1dbdd4	-0.15404445
20	0x3d798e3f	0.060926672
21	0xbdb0d235	-0.08633844
22	0xbc2693fe	-0.01016712
23	0x3e353aff	0.17698286
24	0xbac8eee2	-0.0015329982
25	0x3c89e07e	0.016830679
26	0xbe2359ac	-0.15952176
27	0xbe972f18	-0.29528117
28	0x3ca4fa90	0.020139009
29	0x3df3daa0	0.11906934
30	0x3d1e030f	0.038577136
31	0xbdf956d0	-0.12174761
32	0xbd15b680	-0.036551
33	0xbe290248	-0.16504776
34	0xbe1f9d34	-0.15587312
35	0xbe2b5684	-0.16732222
36	0xbd46185e	-0.048363082
37	0x3e47e139	0.1951951
38	0xbdbfe2c5	-0.09369425
39	0x3ce32f0b	0.027732393
40	0xbd5f947f	-0.054584976
41	0xbe1fa6d3	-0.15590982
42	0x3da2a8ad	0.079423286
43	0x3e17c9e6	0.14823112
44	0xbe92c564	-0.28666222
45	0xbe397cde	-0.1811404
46	0xbe101848	-0.14071763
47	0x3e0cc0cd	0.13745423
48	0xbdde2ad5	-0.10848013
49	0x3e2f511e	0.17120788
50	0xbd440bf1	-0.04786295
51	0x3c9e2ff1	0.01930997
52	0xbe1abe48	-0.15111649
53	0x3e1aab33	0.1510437
54	0x3d26c098	0.040711015
55	0x3b3849a2	0.002812006
56	0xbdc59981	-0.09648419
57	0x3dd757de	0.10514806
58	0xbd219e5e	-0.03945767
59	0x3c421f24	0.011848245
60	0x3d963cd5	0.073358215
61	0x3dff2dc7	0.12459903
62	0xbd9b1b1f	-0.07573532
63	0xbc1a13aa	-0.009404102
64	0xbe141727	-0.14461957
65	0xbe0b7b89	-0.13621344
66	0xbcbac06f	-0.022796838
67	0x3d81fcc9	0.06347043
68	0x3d61c474	0.055118993
69	0xbe49c600	-0.19704437
70	0xbe03bd63	-0.12865214
71	0xbe735588	-0.23763096
72	0x3e319f81	0.17346002
73	0x3dfa9e95	0.12237278
74	0xbba82f87	-0.005132619
75	0x3e155e05	0.14586647
76	0x3d8ef954	0.06981149
77	0xbb8503be	-0.004059284
78	0x3dd66011	0.10467542
79	0xbd63a6bb	-0.05557893
80	0xbe1c98a4	-0.15292603
81	0x3ae905d6	0.0017778229
82	0xbd653824	-0.055961743
83	0xbcb8331f	-0.022485314
84	0xbd8b8d88	-0.06814104
85	0x3ddc9539	0.107706495
86	0xbbb75f4a	-0.005596076
87	0xbd123c37	-0.035701957
88	0x3e278493	0.16359167
89	0xbd58abdc	-0.052898273
90	0x3d453740	0.048148394
91	0x3e037312	0.12836865
92	0xbe5d4d65	-0.21611555
93	0xbe84f6a8	-0.25969434
94	0xbd817fdc	-0.06323215
95	0xbd4edce5	-0.05050363
96	0xbcc5cc51	-0.024145277
97	0x3e1eda36	0.15512928
98	0xbc4b20c7	-0.012397951
99	0x3e29adb4	0.16570169
100	0xbea10c9d	-0.31454936
101	0xbe733d97	-0.23753963
102	0xbcb7b889	-0.02242686
103	0x3e00fcc5	0.12596424
104	0xbd2ce4cc	-0.042210385
105	0xbe4b6b2f	-0.19865106
106	0xbd44570e	-0.047934584
107	0xbe071c3d	-0.13194366
108	0x3dd7a24f	0.10529005
109	0xbe7ca79a	-0.2467331
110	0xbdc088d7	-0.094011
111	0xbe0b6964	-0.13614422
112	0xbe9e46d4	-0.30913413
113	0x3e2766f5	0.16347869
114	0xbe0b4606	-0.1360093
115	0xbe18bc6f	-0.14915632
116	0xbd3d0d06	-0.046155
117	0xbdec7188	-0.11545092
118	0xbc1dcf63	-0.009631964
119	0xbcd28682	-0.025698904
120	0x3ddfc220	0.10925698
121	0xbdbb684e	-0.09150754
122	0xbc88d6e4	-0.01670403
123	0x3db4c19b	0.0882599
124	0x3df2c4ed	0.11853967
125	0x3e12ab51	0.14323165
126	0x3e14617b	0.14490311
127	0x3e32681f	0.17422532
128	0x3bd59169	0.0065175784
129	0x3e06d5cf	0.13167499
130	0xbd323a4a	-0.04351262
131	0xbe3efba6	-0.18650684
132	0xbdde9c9f	-0.10869717
133	0xbd2b21d3	-0.041780304
134	0x3e124f0f	0.14287971
135	0xbea43995	-0.32075182
136	0x3c9fa0a0	0.019485772
137	0x3d0e24c8	0.034703046
138	0xbdb6cbe5	-0.089256085
139	0xbe5f9fc5	-0.21838291
140	0xbdf82535	-0.12116472
141	0x3d9aa043	0.07550099
142	0x3d1ec11a	0.038758375
143	0xbe0a2a61	-0.13492729
144	0xbd92952d	-0.07157359
145	0x3de6f378	0.11276907
146	0x3d800de7	0.06252652
147	0xbd7ef6cd	-0.062247086
148	0x3d88e3f5	0.06684104
149	0x3dbdded0	0.09271014
150	0xbdb527dd	-0.08845494
151	0xbdbdbaf7	-0.09264176
152	0xbd9e410c	-0.077272505
153	0x3dfdd5f4	0.12394324
154	0xbe792aa8	-0.24332678
155	0x3dc263c8	0.09491688
156	0xbcfad9c0	-0.03062141
157	0xbd90c277	-0.07068341
158	0x3d4de7c3	0.050269853
159	0x3bb1af7a	0.0054225298
160	0x3d5aaac1	0.0533855
161	0x3de76b92	0.11299814
162	0xbd86b568	-0.06577569
163	0xbd1ad390	-0.037799418
164	0xbe7baaa2	-0.2457681
165	0xbea7e9c0	-0.32795525
166	0xbd5e5f4c	-0.0542901
167	0x3db977f6	0.09056084
168	0xba21c45b	-0.0006170922
169	0x3d315b00	0.043299675
170	0xbd570cb0	-0.052502334
171	0xbe004bbf	-0.12528895
172	0xbde21d5d	-0.11040757
173	0x3da7c586	0.081919715
174	0xbcb2a599	-0.021807479
175	0xbd4bea37	-0.04978391
176	0x3d249690	0.04018265
177	0x3c0d3b80	0.008620143
178	0x3e732d2e	0.23747703
179	0xbb5b2336	-0.0033437735
180	0x3e34898b	0.17630593
181	0xbe846ca5	-0.2586414
182	0x3d6c7056	0.05772432
183	0x3d9b13dd	0.07572148
184	0x3d8eb6a6	0.06968431
185	0x3d9fb2da	0.07797785
186	0x3c3d36a3	0.011548671
187	0xbbdd4075	-0.0067520686
188	0x3e0b7f6a	0.13622823
189	0x3ddd87b1	0.10816897
190	0x3cc177e5	0.02361674
191	0x3e134217	0.1438068
192	0x3d4c40d7	0.049866524
193	0xbe50490a	-0.20340362
194	0xbe4934c3	-0.19649033
195	0x3de86a6d	0.11348424
196	0xbc90176b	-0.017589292
197	0x3c791d3f	0.015204727
198	0xbdce3cfb	-0.10070225
199	0xbd586bc4	-0.05283715
200	0x3cd25d0e	0.025679138
201	0x3d6d4aa5	0.057932515
202	0x3e044bb4	0.12919503
203	0x3cc39a84	0.02387739
204	0x3cc637e2	0.024196569
205	0x3d57b299	0.05266056
206	0xbe3e7c1d	-0.18602033
207	0x3dabb4c3	0.08384087
208	0xbd9d70d3	-0.07687535
209	0x3e1e34c6	0.15449819
210	0xbd969843	-0.0735326
211	0x3d7d7cbf	0.061886545
212	0x3d5ed05f	0.054397937
213	0x3d9d84a4	0.07691315
214	0x3da747db	0.08168002
215	0x3dc2e72f	0.09516751
216	0x3dbe481c	0.092910975
217	0xbc828201	-0.015931131
218	0xbdf5f910	-0.120103955
219	0x3d9778d0	0.0739609
220	0xbe7310a1	-0.23736812
221	0xbdf20168	-0.118166745
222	0x3db35cc1	0.08757926
223	0xbd3db2e0	-0.046313167
224	0xbdad324f	-0.08456861
225	0xbec47aae	-0.38374847
226	0x3e1df36f	0.15424894
227	0x3e11bf04	0.14233023
228	0xbcf9710f	-0.030449418
229	0xbe2c761d	-0.16841932
230	0x3e3abff5	0.18237288
231	0xbe44b61e	-0.19210097
232	0x3bed7fac	0.0072478857
233	0xbd9032ed	-0.07040963
234	0x3dd6fe7a	0.10497756
235	0xbe0e3326	-0.13886699
236	0x3dd6783f	0.10472154
237	0xbe15067f	-0.1455326
238	0x3e047113	0.1293376
239	0xbe2e49be	-0.17020318
240	0xbdbb126b	-0.09134372
241	0xbe81355b	-0.2523602
242	0xbe3870a9	-0.18011726
243	0xbd712ba9	-0.05887953
244	0xbd724166	-0.0591444
245	0x3d953c85	0.07286934
246	0x3d125944	0.03572966
247	0x3c74bff1	0.0149383405
248	0xbd884cd2	-0.06655277
249	0x3c3de688	0.011590607
250	0xbc66196e	-0.014044149
251	0xbdc3336e	-0.09531294
252	0x3d3dfc1a	0.046383
253	0xbd008a66	-0.031381987
254	0x3d9290ad	0.07156501
255	0x3d570c4b	0.052501958

transformer_encoder.layers.0.linear2.weight f4 [16, 2048]
0	0x3d26dd9e	0.040738694
1	0xbd3903d6	-0.045169674
2	0x3c8bc116	0.017059844
3	0xbc2bfcb1	-0.010497258
4	0x3ca8c57b	0.020601979
5	0xba96d9f0	-0.0011509042
6	0x3bf38eb3	0.0074327826
7	0x3c9d4558	0.019198105
8	0xbbf1a2d9	-0.0073741493
9	0xbb4dfb10	-0.0031430162
10	0xbc611757	-0.013738475
11	0x3c406dea	0.011744956
12	0xbc5ae84f	-0.013361051
13	0x3b7ab5bd	0.0038255297
14	0x3c9b9d52	0.018995915
15	0xbc73b230	-0.014874026
16	0xbd997bb3	-0.07494297
17	0xbd88957f	-0.06669139
18	0x3d63f8eb	0.05565731
19	0xbd165694	-0.03670366
20	0xbb127315	-0.0022346426
21	0xbb320203	-0.0027161844
22	0xbc794934	-0.015215207
23	0x3c78738d	0.015164268
24	0xbc18fecf	-0.009338095
25	0x3c2a1383	0.0103806285
26	0xbd8ce538	-0.068796575
27	0xbd1d249b	-0.038364988
28	0x3b946cf5	0.0045295903
29	0xbc81fd1a	-0.015867759
30	0x3be219de	0.0069000563
31	0xbd608101	-0.054810528
32	0xbd1323b5	-0.035922725
33	0xbb514962	-0.0031934609
34	0xbc04ef14	-0.008113641
35	0x3c013e1f	0.007888346
36	0x3bd5b646	0.006521973
37	0x3b19e9a9	0.002348522
38	0xbbc2b611	-0.005942114
39	0xbc8117be	-0.015758391
40	0xbc7c5db0	-0.015403196
41	0xbbd9045f	-0.0066228355
42	0xba84bcf7	-0.0010127117
43	0x3d906161	0.070498236
44	0x3bb2130e	0.0054344004
45	0xbc6a063d	-0.014283714
46	0x3d7bfc06	0.061519645
47	0xbac5bae1	-0.0015085601
48	0xbd3513aa	-0.044208206
49	0x3daedb88	0.08537966
50	0xbc0f783a	-0.008756692
51	0x3cd701c1	0.026245954
52	0xbc88ba13	-0.01669029
53	0xbce59d94	-0.02802924
54	0xbb925a81	-0.0044663553
55	0x3b84ea41	0.0040562456
56	0x3bd5306f	0.006506018
57	0x3c61bd1c	0.013777997
58	0x3bbcf60a	0.005766635
59	0x3a3403a3	0.0006866997
60	0x3c24b60f	0.010053172
61	0xbc45e02e	-0.012077374
62	0xbd074f29	-0.033034477
63	0xbc3353fb	-0.0109453155
64	0xbd0e4f7f	-0.034743782
65	0x3d93cdec	0.07217011
66	0xbccaa90e	-0.024738815
67	0x3d5b60dd	0.053559173
68	0xbc1339f0	-0.008985981
69	0xbd6af910	-0.05736643
70	0x3c365ff3	0.0111312745
71	0xbd514493	-0.051090788
72	0xbdae65fe	-0.08515547
73	0x3c0bcf07	0.008533246
74	0x3b082290	0.0020772554
75	0xbbacd0c1	-0.005273909
76	0xbe0f830c	-0.14014834
77	0xbc76d2e6	-0.015064931
78	0xbc8223e7	-0.01588626
79	0xbc9b5b6d	-0.018964494
80	0xbb3d350c	-0.002887073
81	0x3dba7341	0.09104014
82	0xbd02e3b6	-0.031955443
83	0x3dbaa0c8	0.09112698
84	0xbd210eed	-0.039320875
85	0x3aab0cc1	0.0013050066
86	0xbbda062f	-0.006653569
87	0xbb8142e1	-0.00394474
88	0x3bb7a92c	0.0056048837
89	0x3bcabf16	0.00618733
90	0x3de02421	0.10944391
91	0x3c72ce91	0.014819757
92	0x3d1163c1	0.035495523
93	0xbc37e8ce	-0.011224939
94	0xbd156719	-0.036475275
95	0xbcd82a46	-0.026387345
96	0xbe12d1d2	-0.14337853
97	0xbc9d6306	-0.019212257
98	0xbc5e85c0	-0.013581693
99	0xbdb3b4cd	-0.087747194
100	0xbb35ac1e	-0.0027720998
101	0xbd585da0	-0.052823663
102	0x3c055aa2	0.008139284
103	0xbd175f2b	-0.036955994
104	0x3c7ea02f	0.01554112
105	0xbe225109	-0.15851225
106	0xbca9a3c2	-0.020707969
107	0xbc3e53ee	-0.01161669
108	0x3cc06ea3	0.023490256
109	0xbdab0308	-0.083501875
110	0xbd781f5a	-0.060576774
111	0xbd6e0e82	-0.058119304
112	0x3c2eaa3e	0.010660706
113	0xbd9b1399	-0.07572097
114	0xbc024965	-0.007952069
115	0x3c1282ac	0.008942287
116	0xbe278443	-0.16359048
117	0xbb024361	-0.0019876587
118	0xbc8bffb2	-0.017089698
119	0x3bbf49be	0.005837648
120	0xbcc903ff	-0.024538038
121	0xbce6a8d4	-0.028156675
122	0xbbbceab3	-0.005765283
123	0xbd0e5c13	-0.034755778
124	0xbd1f6668	-0.03891602
125	0x3c52a4cb	0.0128566725
126	0xb9323ec2	-0.00016998782
127	0xb992f57e	-0.00028030196
128	0xbd0fe30a	-0.03512863
129	0x3cb192a5	0.02167637
130	0xbb0ed6f0	-0.0021795593
131	0xbd71c262	-0.05902327
132	0xbc5dc127	-0.013534821
133	0xbc86a2cc	-0.01643505
134	0xbc68aa85	-0.014200811
135	0x3c455a4f	0.012045457
136	0x3df023a6	0.117255494
137	0x3d191078	0.03736922
138	0x3c14488c	0.0090505
139	0xbcd44769	-0.025912957
140	0xbc5ab893	-0.01334967
141	0x3d05537a	0.032550313
142	0xbc1dcc83	-0.009631279
143	0xbd16c7c5	-0.03681161
144	0xbb82ad68	-0.003987957
145	0x3a4e6ecf	0.0007874788
146	0x3c0f41fc	0.008743759
147	0xbdee2e12	-0.11629881
148	0xbddfab00	-0.109212875
149	0x3cd33352	0.025781307
150	0xbc6c317c	-0.014416095
151	0xbd4c6417	-0.04990014
152	0x3cb56289	0.022141712
153	0x3d82b221	0.06381632
154	0xbc339d20	-0.0109627545
155	0x3cd3acae	0.025839176
156	0x3c072998	0.008249663
157	0xbca42bd3	-0.020040428
158	0xbd072927	-0.03299823
159	0xbd012989	-0.03153375
160	0xbb644852	-0.0034833145
161	0xbbcaeb46	-0.0061925976
162	0xbc095075	-0.008380999
163	0xbcca54c7	-0.024698628
164	0xbcf7335c	-0.030175857
165	0xbca5abf1	-0.02022359
166	0xbcaa1df1	-0.02076623
167	0xbd3aef2a	-0.04563824
168	0xbd8244d0	-0.06360781
169	0x3d1ba363	0.037997615
170	0xbb0fae1d	-0.0021923848
171	0xbc183846	-0.00929076
172	0x3dc01423	0.09378841
173	0x3b497c6a	0.0030744323
174	0x3dee6382	0.11640073
175	0x3d2b5153	0.041825604
176	0x3c059c47	0.008154935
177	0x3c8f1422	0.017465655
178	0xba9358ef	-0.0011241714
179	0xbc70c461	-0.014695258
180	0x3b440ca7	0.0029914768
181	0xbd404737	-0.046942916
182	0xbc20c1e7	-0.009811855
183	0xbd71de84	-0.059050098
184	0xbbfdcdea	-0.007745494
185	0xbccff5ef	-0.025385825
186	0xbb1abc67	-0.0023610832
187	0x3c4b7b03	0.012419465
188	0x3cab9c01	0.020948412
189	0xbc1a86bc	-0.009431537
190	0x3bfc00f1	0.007690542
191	0x3b9f00d3	0.004852393
192	0xbcdf6418	-0.027269408
193	0xbd94f2f6	-0.072729036
194	0xbd6b2086	-0.057404064
195	0xbd234517	-0.03986081
196	0xbdb2ac6c	-0.08724293
197	0x3c38cafb	0.011278863
198	0x3cd25f63	0.02568025
199	0xbc8282ea	-0.015931565
200	0xbd1f27f2	-0.038856454
201	0xbb502b58	-0.0031764116
202	0xbc5dbcd4	-0.01353379
203	0x3cd6521c	0.0261622
204	0x3b064898	0.0020490047
205	0xbd0c8ca2	-0.034313805
206	0x3cbf88f9	0.023380743
207	0xbd07d0c6	-0.033158086
208	0xbd5df1a4	-0.054185525
209	0x3c19bdce	0.009383632
210	0xbd77eef7	-0.06053063
211	0xbc61c0c3	-0.013778868
212	0xbb9e9dc7	-0.004840586
213	0x3b744f0f	0.0037278568
214	0x3c8d3d99	0.017241286
215	0xbb950c15	-0.0045485594
216	0x3a815c82	0.0009869488
217	0xbc4b8c4f	-0.012423589
218	0xbd2d3e1e	-0.042295568
219	0x3983faf6	0.00025173248
220	0xbcc4dd58	-0.024031326
221	0xbc8485bb	-0.016177049
222	0xbd1beb82	-0.038066395
223	0xbd9613b0	-0.07327974
224	0xbc27976e	-0.010228975
225	0xbdc75a15	-0.09733979
226	0xbd808c90	-0.0627681
227	0x3bebe02d	0.0071983547
228	0x3c5d5f77	0.01351153
229	0xbcaf29af	-0.021382181
230	0x3a529571	0.0008033133
231	0x3da00387	0.07813173
232	0x3c5f1677	0.013616196
233	0xbccd8bab	-0.025091013
234	0x3d3acad7	0.0456036
235	0xbdb14eae	-0.08657585
236	0xbcedd9a8	-0.02903445
237	0x3bbdddb7	0.0057942527
238	0xbd2493b8	-0.040179938
239	0xbd70750e	-0.058705382
240	0x3d424eac	0.04743831
241	0x3d2dc066	0.042419814
242	0xbd481eb3	-0.048857402
243	0xbc7db52d	-0.01548509
244	0x3c30f63e	0.010800896
245	0xbc5c43fc	-0.013443943
246	0xbd152653	-0.036413502
247	0x3c7e4fd1	0.015521959
248	0xbccb64bd	-0.02482831
249	0xbb8ec31c	-0.004356755
250	0xbc2fad63	-0.010722491
251	0xbd63d947	-0.055627134
252	0xbb96b50d	-0.0045992197
253	0xbd8d52ad	-0.06900535
254	0x3c92a58b	0.017901203
255	0x3baceea3	0.005277471

transformer_encoder.layers.0.linear2.bias f4 [16]
0	0x3d62db4b	0.055384915
1	0x3cee0ec5	0.029059777
2	0x3cee8629	0.029116707
3	0x3d5337fb	0.05156706
4	0xbcaa9b40	-0.020825982
5	0x3c2ffa70	0.010740861
6	0xbd244014	-0.040100172
7	0x3c71804b	0.01474006
8	0xbc949f87	-0.018142475
9	0xbcfb94ae	-0.030710544
10	0x3cbc5666	0.022990417
11	0xbd99b22d	-0.075046875
12	0x3b7f39fc	0.0038944473
13	0x3d1a1d5d	0.03762566
14	0x3ceaf822	0.028682772
15	0xbc0b7097	-0.00851073

transformer_encoder.layers.0.norm1.weight f4 [16]
0	0x3f99622c	1.1983085
1	0x3f6703cf	0.90240186
2	0x3f8c6664	1.0968747
3	0x3f89575a	1.0729783
4	0x3f9cfe79	1.2265159
5	0x3f95439c	1.1661258
6	0x3f8d8606	1.1056526
7	0x3f833fbe	1.0253828
8	0x3f834cb2	1.025778
9	0x3f928abc	1.1448588
10	0x3f859c22	1.0438273
11	0x3f801377	1.000594
12	0x3f89caea	1.076505
13	0x3f505781	0.8138352
14	0x3f80f97f	1.007614
15	0x3f94c39b	1.1622194

transformer_encoder.layers.0.norm1.bias f4 [16]
0	0xbc928afb	-0.017888537
1	0x3dd55b78	0.10417837
2	0xbc1551d1	-0.009113745
3	0x3b720ae4	0.003693276
4	0xbac41ba1	-0.0014961847
5	0x3ba7c5fc	0.005120037
6	0x3b180cfc	0.0023201099
7	0x3cde1846	0.027111184
8	0x3b976a49	0.0046208245
9	0x3cce465a	0.02518003
10	0xbcb4449e	-0.022005375
11	0xbc49a814	-0.012308139
12	0xbd34e8ec	-0.044167444
13	0x3c763875	0.015028109
14	0x3c881f1d	0.016616398
15	0xbc25a387	-0.010109789

transformer_encoder.layers.0.norm2.weight f4 [16]
0	0x3f894e2a	1.0726979
1	0x3f40e204	0.7534487
2	0x3f8a8a0f	1.0823382
3	0x3f7bb2a5	0.98319465
4	0x3f859cb2	1.0438445
5	0x3f8b10ad	1.0864464
6	0x3f80c38f	1.005968
7	0x3f635e51	0.8881579
8	0x3f76d1f3	0.9641411
9	0x3f8c7f7f	1.0976409
10	0x3f65a209	0.8970037
11	0x3f47b384	0.78008294
12	0x3f84f3df	1.0386924
13	0x3f59c51b	0.85066384
14	0x3f81e677	1.0148457
15	0x3f92f65f	1.1481436

transformer_encoder.layers.0.norm2.bias f4 [16]
0	0xbd304202	-0.0430317
1	0x3e12d331	0.14338376
2	0x3d291be3	0.04128636
3	0x3c954e77	0.018225892
4	0xbe005d1a	-0.12535515
5	0x3d2f5aab	0.042811077
6	0xbbd0ce57	-0.006372254
7	0x3cf72bf4	0.030172326
8	0x3b1b491c	0.00236947
9	0xbd233f5d	-0.03985535
10	0xbc4b839d	-0.012421516
11	0xbd18775c	-0.037223205
12	0xbd906334	-0.070501715
13	0x3da2b120	0.0794394
14	0x3d47d569	0.04878751
15	0xbccb9953	-0.024853384

transformer_encoder.layers.1.self_attn.in_proj_weight f4 [48, 16]
0	0xbea02791	-0.31280187
1	0xbde94cfe	-0.11391638
2	0x3d8861bd	0.06659267
3	0xbe7c7cd2	-0.2465699
4	0xbe634bf2	-0.2219694
5	0x3eef04cf	0.46683356
6	0xbe65ce14	-0.22441894
7	0x3cacd302	0.02109671
8	0x3e07c115	0.13257249
9	0xbe90c4e8	-0.28275228
10	0x3f080317	0.53129715
11	0x3d4c9019	0.04994211
12	0x3d07e6c9	0.03317908
13	0x3e63b6c2	0.22237685
14	0xbe0ec76e	-0.13943264
15	0x3e7b59c9	0.24545969
16	0xbe02d6b1	-0.12777211
17	0xbeed3bee	-0.46334785
18	0x3ebe5fad	0.3718237
19	0x3bc9ef99	0.0061625955
20	0xbcb494f2	-0.022043679
21	0x3e4ba76c	0.19888085
22	0xbd97c7c7	-0.074111514
23	0xbd3a0c12	-0.045421667
24	0x3ed11f2f	0.40844104
25	0xbea76cfd	-0.3270034
26	0x3ddb6b78	0.107138574
27	0x3e678203	0.2260819
28	0xbe0f93a3	-0.14021163
29	0xbd344e4f	-0.044019993
30	0xbb2bceb4	-0.0026215734
31	0xbe1d230d	-0.15345402
32	0xbe949997	-0.2902343
33	0xbd9c5816	-0.076339886
34	0x3dc5d8c9	0.09660489
35	0x3e180f3a	0.14849558
36	0xbe693d02	-0.22777179
37	0x3d5af869	0.05345956
38	0xbd74c98a	-0.059762515
39	0x3dfb40df	0.122682326
40	0xbd89a982	-0.06721784
41	0xbe0eb351	-0.13935591
42	0x3e640f97	0.22271572
43	0xbe326948	-0.17422974
44	0xbdc5d896	-0.09660451
45	0x3d30c331	0.0431549
46	0xbdedbad0	-0.11607897
47	0x3e6b690b	0.2298929
48	0xbee6d7a7	-0.45086405
49	0xbe2e9b82	-0.17051509
50	0x3e254fc2	0.16143706
51	0xbde53567	-0.11191826
52	0x3e4f3fa7	0.20239125
53	0x3de619eb	0.11235412
54	0x3e3336ba	0.17501345
55	0xbe093103	-0.13397603
56	0x3cc67b31	0.024228664
57	0xbdfe96c5	-0.12431101
58	0xbd97601c	-0.07391378
59	0x3ce485af	0.027895777
60	0xbed311e0	-0.41224575
61	0x3e8e01ca	0.2773574
62	0xbeb13014	-0.34606993
63	0x3e3b8c46	0.18315229
64	0xbdcfbddb	-0.10143634
65	0xbd5362c3	-0.05160786
66	0xbe268456	-0.1626142
67	0xbe267415	-0.1625522
68	0x3e606644	0.21914011
69	0xbe9ecdde	-0.3101644
70	0xbe2e4c13	-0.17021208
71	0xbddd2ca2	-0.10799529
72	0x3deec7fe	0.11659239
73	0xbe2580b3	-0.16162376
74	0x3cd40b1c	0.025884204
75	0x3df40373	0.119147204
76	0xbdc8325a	-0.09775229
77	0x3e19d139	0.15021218
78	0xbe6e5636	-0.23275074
79	0x3eca14bd	0.39468947
80	0xbe8de12a	-0.2771085
81	0x3e645045	0.22296245
82	0xbcf80325	-0.030274937
83	0xbd66fc93	-0.056393217
84	0x3e68c979	0.22733106
85	0x3e35d20a	0.17755905
86	0x3e891d78	0.26780295
87	0xbeb90300	-0.361351
88	0x3e7c4aa1	0.24637844
89	0x3e8b2a8c	0.27180898
90	0xbedec956	-0.43512982
91	0x3d6b8463	0.0574993
92	0x3cdc45c7	0.026888741
93	0xbf052c7e	-0.52021015
94	0x3d7c6532	0.061619945
95	0x3e43898e	0.19095442
96	0xbe82391f	-0.25434205
97	0x3e95e4cd	0.29276124
98	0xbe0b0475	-0.13575919
99	0xbdd9ab95	-0.1062843
100	0xbca2c410	-0.01986888
101	0xbdbd50e3	-0.092439435
102	0x3ce6a69d	0.02815562
103	0xbea9eabd	-0.33186904
104	0x3e988bd8	0.29794192
105	0x3ebf32f5	0.37343565
106	0xbea2409e	-0.31689924
107	0xbd91b438	-0.07114452
108	0xbe33d978	-0.17563426
109	0x3c95f8c8	0.018307105
110	0xbe3a3c5b	-0.18187086
111	0x3ec331cf	0.38123938
112	0xbe8b79ee	-0.27241462
113	0x3e1846b4	0.14870721
114	0x3d97d2ed	0.07413278
115	0x3cdc88b8	0.026920661
116	0xbe0a3b19	-0.13499106
117	0x3de22ec8	0.11044079
118	0x3e350b4f	0.17680095
119	0xbe9e0812	-0.30865532
120	0x3e8ff489	0.28116253
121	0x3e5691d0	0.2095406
122	0x3e1d87e6	0.15383872
123	0x3e480ada	0.1953539
124	0xbddfdb75	-0.1093053
125	0xbe196038	-0.14978111
126	0xbb91ca63	-0.004449175
127	0x3ef4e51c	0.47831047
128	0xbd0343b1	-0.032046977
129	0x3dfa300c	0.122161955
130	0x3eac0492	0.33597237
131	0xbe99c491	-0.3003278
132	0xbe93c9d4	-0.2886492
133	0x3e2df30f	0.16987251
134	0x3dee1768	0.11625558
135	0xbc2a00ad	-0.010376138
136	0x3ef0a837	0.47003338
137	0xbe37c35c	-0.17945617
138	0x3dd22680	0.102612495
139	0xbcd65ae3	-0.026166385
140	0xbf0e67c4	-0.55627084
141	0x3e278e61	0.16362907
142	0xbec0aa8e	-0.37630123
143	0x3efaf935	0.49018255
144	0xbe4cc46a	-0.19996801
145	0xbe49f519	-0.19722404
146	0xbe3bce11	-0.18340327
147	0xbe0251d6	-0.1272653
148	0x3ed7747c	0.42081058
149	0xbe069ed5	-0.13146527
150	0x3ea9c8e0	0.33161068
151	0x3e3ad0d9	0.18243732
152	0xbe469e50	-0.19396329
153	0x3e623fe7	0.2209469
154	0xbda59658	-0.080853164
155	0x3d80c5d6	0.06287734
156	0xbda0acaf	-0.07845437
157	0xbeeff29a	-0.46864778
158	0xbe783bc5	-0.2424155
159	0x3e7df8c9	0.24801935
160	0xbce47d7a	-0.027891863
161	0xbe9cda6a	-0.30635387
162	0xbeb04b55	-0.34432474
163	0x3ebcde5d	0.368884
164	0xbe96cc4f	-0.2945275
165	0xbcd0edf7	-0.025504095
166	0xbeb18750	-0.34673548
167	0x3e793f8b	0.24340646
168	0xbd901047	-0.07034355
169	0xbd423793	-0.04741628
170	0xbdde238f	-0.10846626
171	0x3cbd369e	0.023097333
172	0x3ef84d70	0.4849658
173	0x3e2c1303	0.16804127
174	0x3c659acc	0.014013957
175	0xbe2d9d39	-0.16954507
176	0xbda2ab05	-0.07942776
177	0xbea5768b	-0.32317004
178	0xbea1d1ce	-0.3160538
179	0xbd2bb05b	-0.041916233
180	0x3e74869d	0.23879476
181	0x3d921cd0	0.07134402
182	0x3d664322	0.056216367
183	0xbe1a0eb4	-0.15044671
184	0xbe9b4ad3	-0.30330524
185	0xbdac2135	-0.08404771
186	0x3e47c6e9	0.19509472
187	0x3e46aa86	0.19400987
188	0x3eba5d02	0.36399084
189	0xbe92044f	-0.28518912
190	0xbe3d9e43	-0.18517403
191	0x3da63e4e	0.081173524
192	0xbe2bde3e	-0.16783997
193	0xbcec3644	-0.02883447
194	0x3e0c8157	0.13721214
195	0xbe0e9bd1	-0.13926627
196	0xbe077acb	-0.13230436
197	0x3e637d09	0.22215666
198	0x3e59b5e5	0.21260794
199	0xbe78e399	-0.24305572
200	0xbe485017	-0.19561802
201	0xbcf09cf5	-0.029371718
202	0xbe8ea59f	-0.27860734
203	0x3e98d5aa	0.29850513
204	0x3e25ceb6	0.16192135
205	0x3e411646	0.18856153
206	0x3e4181fa	0.18897238
207	0xbd31f01b	-0.043441873
208	0x3d3f69cc	0.046731755
209	0xbdd831fd	-0.105564095
210	0xbe029fa5	-0.12756212
211	0x3e280ec6	0.16411886
212	0xbe400c39	-0.18754663
213	0x3ac0cac8	0.0014708871
214	0xbe357113	-0.17718916
215	0xbd5f5872	-0.054527707
216	0xbcb024d6	-0.02150194
217	0xbeaaeb38	-0.33382583
218	0x3e8594b5	0.26090017
219	0xbe921151	-0.28528836
220	0x3e33f6da	0.17574635
221	0x3d6cb222	0.05778707
222	0xbe04258c	-0.12904948
223	0xbe80fb00	-0.25191498
224	0xbd5cd792	-0.05391652
225	0xbdfc2000	-0.12310791
226	0x3ee46488	0.4460795
227	0xbdad2647	-0.084545664
228	0xbe40641a	-0.18788186
229	0x3e3c19d4	0.18369228
230	0xbe2cbecf	-0.16869663
231	0x3e81c138	0.25342727
232	0xbdf956a7	-0.12174731
233	0xbe341003	-0.17584233
234	0x3e6f35b0	0.23360324
235	0xbcb1d1ef	-0.02170655
236	0xbea0d8ce	-0.3141541
237	0x3e47b8d7	0.19504105
238	0xbd8f4b21	-0.069967516
239	0x3e36dd5f	0.17857884
240	0xbec111bf	-0.37708852
241	0xbe27b9cd	-0.16379471
242	0xbbfbdd75	-0.007686312
243	0xbabbb5c6	-0.001432114
244	0x3e78f3d5	0.24311765
245	0xbe165f06	-0.14684686
246	0x3ea7295d	0.32648745
247	0xbe2e8aeb	-0.1704518
248	0xbd9c779a	-0.0764
249	0x3ea1523f	0.3150806
250	0x3d17bfe1	0.037048224
251	0x3e025c35	0.12730487
252	0xbe9662d1	-0.29372266
253	0xbecf45c2	-0.40482908
254	0x3cc3e683	0.023913627
255	0x3d3ccd39	0.046094153

transformer_encoder.layers.1.self_attn.in_proj_bias f4 [48]
0	0x3d0a5286	0.033770107
1	0xbd7852ac	-0.060625717
2	0x3d137d0a	0.03600792
3	0x3e8c5fb3	0.27416763
4	0x3e0bd032	0.13653639
5	0x3e0ebce3	0.13939242
6	0x3e29a8db	0.1656832
7	0x3e67bf2f	0.22631525
8	0x3d990c62	0.07473065
9	0x3e3e3893	0.18576269
10	0xbe1a3030	-0.15057445
11	0x3b7a5912	0.0038200063
12	0x3ddca20c	0.107730955
13	0xbe97f2f8	-0.29677558
14	0xbded5f71	-0.1159047
15	0x3e84ceb6	0.25938958
16	0xb9df351f	-0.00042573453
17	0x39bd4548	0.00036100508
18	0xba123eb8	-0.0005578804
19	0x3a41293d	0.00073685107
20	0xba7629b3	-0.0009390369
21	0xbaa9b70f	-0.0012948232
22	0xba6d97f9	-0.0009063478
23	0xb9a93ad6	-0.00032278028
24	0xbb11e083	-0.0022259064
25	0x3584723e	9.868015e-07
26	0xba50f44b	-0.0007970973
27	0x3a091e5e	0.00052306603
28	0x392ebee7	0.0001666505
29	0xba43ef00	-0.00074742734
30	0xb981da20	-0.00024767313
31	0x39b85d33	0.00035164654
32	0x3d8b8d2b	0.06814035
33	0x3d05464d	0.032537747
34	0x3d73683f	0.05942559
35	0x3ccfa7d2	0.025348578
36	0xbd27771c	-0.040885076
37	0x3d347f84	0.04406692
38	0xbc0b3522	-0.008496555
39	0xbd0dcc95	-0.034618933
40	0x3c8406d2	0.016116533
41	0xbd30f23e	-0.04319977
42	0x3cba8591	0.022768768
43	0x3d3af658	0.045645088
44	0xbd294b26	-0.041331433
45	0xbd2b260a	-0.041784324
46	0x3b8bdbe5	0.004268157
47	0xbd848d31	-0.064722426
